node {
  name: "global_step/Initializer/zeros"
  op: "Const"
  attr {
    key: "_class"
    value {
      list {
        s: "loc:@global_step"
      }
    }
  }
  attr {
    key: "_output_shapes"
    value {
      list {
        shape {
        }
      }
    }
  }
  attr {
    key: "dtype"
    value {
      type: DT_INT64
    }
  }
  attr {
    key: "value"
    value {
      tensor {
        dtype: DT_INT64
        tensor_shape {
        }
        int64_val: 0
      }
    }
  }
}
node {
  name: "global_step"
  op: "VarHandleOp"
  attr {
    key: "_class"
    value {
      list {
        s: "loc:@global_step"
      }
    }
  }
  attr {
    key: "_output_shapes"
    value {
      list {
        shape {
        }
      }
    }
  }
  attr {
    key: "allowed_devices"
    value {
      list {
      }
    }
  }
  attr {
    key: "container"
    value {
      s: ""
    }
  }
  attr {
    key: "dtype"
    value {
      type: DT_INT64
    }
  }
  attr {
    key: "shape"
    value {
      shape {
      }
    }
  }
  attr {
    key: "shared_name"
    value {
      s: "global_step"
    }
  }
}
node {
  name: "global_step/IsInitialized/VarIsInitializedOp"
  op: "VarIsInitializedOp"
  input: "global_step"
  attr {
    key: "_output_shapes"
    value {
      list {
        shape {
        }
      }
    }
  }
}
node {
  name: "global_step/Assign"
  op: "AssignVariableOp"
  input: "global_step"
  input: "global_step/Initializer/zeros"
  attr {
    key: "dtype"
    value {
      type: DT_INT64
    }
  }
  attr {
    key: "validate_shape"
    value {
      b: false
    }
  }
}
node {
  name: "global_step/Read/ReadVariableOp"
  op: "ReadVariableOp"
  input: "global_step"
  attr {
    key: "_output_shapes"
    value {
      list {
        shape {
        }
      }
    }
  }
  attr {
    key: "dtype"
    value {
      type: DT_INT64
    }
  }
}
node {
  name: "global_step/VarIsInitializedOp"
  op: "VarIsInitializedOp"
  input: "global_step"
  attr {
    key: "_output_shapes"
    value {
      list {
        shape {
        }
      }
    }
  }
}
node {
  name: "global_step/cond"
  op: "If"
  input: "global_step/VarIsInitializedOp"
  input: "global_step"
  input: "global_step/Initializer/zeros"
  attr {
    key: "Tcond"
    value {
      type: DT_BOOL
    }
  }
  attr {
    key: "Tin"
    value {
      list {
        type: DT_RESOURCE
        type: DT_INT64
      }
    }
  }
  attr {
    key: "Tout"
    value {
      list {
        type: DT_INT64
      }
    }
  }
  attr {
    key: "_lower_using_switch_merge"
    value {
      b: true
    }
  }
  attr {
    key: "_output_shapes"
    value {
      list {
        shape {
        }
      }
    }
  }
  attr {
    key: "_read_only_resource_inputs"
    value {
      list {
        i: 1
      }
    }
  }
  attr {
    key: "else_branch"
    value {
      func {
        name: "global_step_cond_false_82788"
      }
    }
  }
  attr {
    key: "output_shapes"
    value {
      list {
        shape {
        }
      }
    }
  }
  attr {
    key: "then_branch"
    value {
      func {
        name: "global_step_cond_true_82787"
      }
    }
  }
}
node {
  name: "global_step/cond/Identity"
  op: "Identity"
  input: "global_step/cond"
  attr {
    key: "T"
    value {
      type: DT_INT64
    }
  }
  attr {
    key: "_output_shapes"
    value {
      list {
        shape {
        }
      }
    }
  }
}
node {
  name: "global_step/add/y"
  op: "Const"
  attr {
    key: "_output_shapes"
    value {
      list {
        shape {
        }
      }
    }
  }
  attr {
    key: "dtype"
    value {
      type: DT_INT64
    }
  }
  attr {
    key: "value"
    value {
      tensor {
        dtype: DT_INT64
        tensor_shape {
        }
        int64_val: 0
      }
    }
  }
}
node {
  name: "global_step/add"
  op: "AddV2"
  input: "global_step/cond/Identity"
  input: "global_step/add/y"
  attr {
    key: "T"
    value {
      type: DT_INT64
    }
  }
  attr {
    key: "_output_shapes"
    value {
      list {
        shape {
        }
      }
    }
  }
}
node {
  name: "normalize_element/component_0"
  op: "Const"
  device: "/device:CPU:0"
  attr {
    key: "_output_shapes"
    value {
      list {
        shape {
        }
      }
    }
  }
  attr {
    key: "dtype"
    value {
      type: DT_INT32
    }
  }
  attr {
    key: "value"
    value {
      tensor {
        dtype: DT_INT32
        tensor_shape {
        }
        int_val: 0
      }
    }
  }
}
node {
  name: "TensorDataset"
  op: "TensorDataset"
  input: "normalize_element/component_0"
  device: "/device:CPU:0"
  attr {
    key: "Toutput_types"
    value {
      list {
        type: DT_INT32
      }
    }
  }
  attr {
    key: "_output_shapes"
    value {
      list {
        shape {
        }
      }
    }
  }
  attr {
    key: "metadata"
    value {
      s: ""
    }
  }
  attr {
    key: "output_shapes"
    value {
      list {
        shape {
        }
      }
    }
  }
  experimental_type {
    type_id: TFT_PRODUCT
    args {
      type_id: TFT_DATASET
      args {
        type_id: TFT_PRODUCT
        args {
          type_id: TFT_TENSOR
          args {
            type_id: TFT_INT32
          }
        }
      }
    }
  }
}
node {
  name: "FlatMapDataset"
  op: "FlatMapDataset"
  input: "TensorDataset"
  device: "/device:CPU:0"
  attr {
    key: "Targuments"
    value {
      list {
      }
    }
  }
  attr {
    key: "_output_shapes"
    value {
      list {
        shape {
        }
      }
    }
  }
  attr {
    key: "f"
    value {
      func {
        name: "__inference_Dataset_flat_map_flat_map_fn_82824"
        attr {
          key: "_tf_data_function"
          value {
            b: true
          }
        }
      }
    }
  }
  attr {
    key: "metadata"
    value {
      s: ""
    }
  }
  attr {
    key: "output_shapes"
    value {
      list {
        shape {
          dim {
            size: -1
          }
          dim {
            size: 20
          }
        }
        shape {
          dim {
            size: -1
          }
          dim {
            size: 1
          }
        }
      }
    }
  }
  attr {
    key: "output_types"
    value {
      list {
        type: DT_FLOAT
        type: DT_FLOAT
      }
    }
  }
  experimental_type {
    type_id: TFT_PRODUCT
    args {
      type_id: TFT_DATASET
      args {
        type_id: TFT_PRODUCT
        args {
          type_id: TFT_TENSOR
          args {
            type_id: TFT_FLOAT
          }
        }
        args {
          type_id: TFT_TENSOR
          args {
            type_id: TFT_FLOAT
          }
        }
      }
    }
  }
}
node {
  name: "buffer_size"
  op: "Const"
  device: "/device:CPU:0"
  attr {
    key: "_output_shapes"
    value {
      list {
        shape {
        }
      }
    }
  }
  attr {
    key: "dtype"
    value {
      type: DT_INT64
    }
  }
  attr {
    key: "value"
    value {
      tensor {
        dtype: DT_INT64
        tensor_shape {
        }
        int64_val: 320
      }
    }
  }
}
node {
  name: "seed"
  op: "Const"
  device: "/device:CPU:0"
  attr {
    key: "_output_shapes"
    value {
      list {
        shape {
        }
      }
    }
  }
  attr {
    key: "dtype"
    value {
      type: DT_INT64
    }
  }
  attr {
    key: "value"
    value {
      tensor {
        dtype: DT_INT64
        tensor_shape {
        }
        int64_val: 42
      }
    }
  }
}
node {
  name: "seed2/Const"
  op: "Const"
  device: "/device:CPU:0"
  attr {
    key: "_output_shapes"
    value {
      list {
        shape {
        }
      }
    }
  }
  attr {
    key: "dtype"
    value {
      type: DT_INT64
    }
  }
  attr {
    key: "value"
    value {
      tensor {
        dtype: DT_INT64
        tensor_shape {
        }
        int64_val: 42
      }
    }
  }
}
node {
  name: "seed2/Equal/y"
  op: "Const"
  device: "/device:CPU:0"
  attr {
    key: "_output_shapes"
    value {
      list {
        shape {
        }
      }
    }
  }
  attr {
    key: "dtype"
    value {
      type: DT_INT64
    }
  }
  attr {
    key: "value"
    value {
      tensor {
        dtype: DT_INT64
        tensor_shape {
        }
        int64_val: 0
      }
    }
  }
}
node {
  name: "seed2/Equal"
  op: "Equal"
  input: "seed"
  input: "seed2/Equal/y"
  device: "/device:CPU:0"
  attr {
    key: "T"
    value {
      type: DT_INT64
    }
  }
  attr {
    key: "_output_shapes"
    value {
      list {
        shape {
        }
      }
    }
  }
  attr {
    key: "incompatible_shape_error"
    value {
      b: true
    }
  }
}
node {
  name: "seed2/Equal_1/y"
  op: "Const"
  device: "/device:CPU:0"
  attr {
    key: "_output_shapes"
    value {
      list {
        shape {
        }
      }
    }
  }
  attr {
    key: "dtype"
    value {
      type: DT_INT64
    }
  }
  attr {
    key: "value"
    value {
      tensor {
        dtype: DT_INT64
        tensor_shape {
        }
        int64_val: 0
      }
    }
  }
}
node {
  name: "seed2/Equal_1"
  op: "Equal"
  input: "seed2/Const"
  input: "seed2/Equal_1/y"
  device: "/device:CPU:0"
  attr {
    key: "T"
    value {
      type: DT_INT64
    }
  }
  attr {
    key: "_output_shapes"
    value {
      list {
        shape {
        }
      }
    }
  }
  attr {
    key: "incompatible_shape_error"
    value {
      b: true
    }
  }
}
node {
  name: "seed2/LogicalAnd"
  op: "LogicalAnd"
  input: "seed2/Equal"
  input: "seed2/Equal_1"
  device: "/device:CPU:0"
  attr {
    key: "_output_shapes"
    value {
      list {
        shape {
        }
      }
    }
  }
}
node {
  name: "seed2/Const_1"
  op: "Const"
  device: "/device:CPU:0"
  attr {
    key: "_output_shapes"
    value {
      list {
        shape {
        }
      }
    }
  }
  attr {
    key: "dtype"
    value {
      type: DT_INT64
    }
  }
  attr {
    key: "value"
    value {
      tensor {
        dtype: DT_INT64
        tensor_shape {
        }
        int64_val: 2147483647
      }
    }
  }
}
node {
  name: "seed2"
  op: "SelectV2"
  input: "seed2/LogicalAnd"
  input: "seed2/Const_1"
  input: "seed2/Const"
  device: "/device:CPU:0"
  attr {
    key: "T"
    value {
      type: DT_INT64
    }
  }
  attr {
    key: "_output_shapes"
    value {
      list {
        shape {
        }
      }
    }
  }
}
node {
  name: "ShuffleDataset"
  op: "ShuffleDataset"
  input: "FlatMapDataset"
  input: "buffer_size"
  input: "seed"
  input: "seed2"
  device: "/device:CPU:0"
  attr {
    key: "_output_shapes"
    value {
      list {
        shape {
        }
      }
    }
  }
  attr {
    key: "metadata"
    value {
      s: ""
    }
  }
  attr {
    key: "output_shapes"
    value {
      list {
        shape {
          dim {
            size: -1
          }
          dim {
            size: 20
          }
        }
        shape {
          dim {
            size: -1
          }
          dim {
            size: 1
          }
        }
      }
    }
  }
  attr {
    key: "output_types"
    value {
      list {
        type: DT_FLOAT
        type: DT_FLOAT
      }
    }
  }
  attr {
    key: "reshuffle_each_iteration"
    value {
      b: true
    }
  }
  experimental_type {
    type_id: TFT_PRODUCT
    args {
      type_id: TFT_DATASET
      args {
        type_id: TFT_PRODUCT
        args {
          type_id: TFT_TENSOR
          args {
            type_id: TFT_FLOAT
          }
        }
        args {
          type_id: TFT_TENSOR
          args {
            type_id: TFT_FLOAT
          }
        }
      }
    }
  }
}
node {
  name: "count"
  op: "Const"
  device: "/device:CPU:0"
  attr {
    key: "_output_shapes"
    value {
      list {
        shape {
        }
      }
    }
  }
  attr {
    key: "dtype"
    value {
      type: DT_INT64
    }
  }
  attr {
    key: "value"
    value {
      tensor {
        dtype: DT_INT64
        tensor_shape {
        }
        int64_val: -1
      }
    }
  }
}
node {
  name: "RepeatDataset"
  op: "RepeatDataset"
  input: "ShuffleDataset"
  input: "count"
  device: "/device:CPU:0"
  attr {
    key: "_output_shapes"
    value {
      list {
        shape {
        }
      }
    }
  }
  attr {
    key: "metadata"
    value {
      s: ""
    }
  }
  attr {
    key: "output_shapes"
    value {
      list {
        shape {
          dim {
            size: -1
          }
          dim {
            size: 20
          }
        }
        shape {
          dim {
            size: -1
          }
          dim {
            size: 1
          }
        }
      }
    }
  }
  attr {
    key: "output_types"
    value {
      list {
        type: DT_FLOAT
        type: DT_FLOAT
      }
    }
  }
  experimental_type {
    type_id: TFT_PRODUCT
    args {
      type_id: TFT_DATASET
      args {
        type_id: TFT_PRODUCT
        args {
          type_id: TFT_TENSOR
          args {
            type_id: TFT_FLOAT
          }
        }
        args {
          type_id: TFT_TENSOR
          args {
            type_id: TFT_FLOAT
          }
        }
      }
    }
  }
}
node {
  name: "OneShotIterator"
  op: "OneShotIterator"
  device: "/device:CPU:0"
  attr {
    key: "_class"
    value {
      list {
        s: "loc:@RepeatDataset"
      }
    }
  }
  attr {
    key: "_output_shapes"
    value {
      list {
        shape {
        }
      }
    }
  }
  attr {
    key: "container"
    value {
      s: ""
    }
  }
  attr {
    key: "dataset_factory"
    value {
      func {
        name: "_make_dataset_AaLR40bnax4"
      }
    }
  }
  attr {
    key: "output_shapes"
    value {
      list {
        shape {
          dim {
            size: -1
          }
          dim {
            size: 20
          }
        }
        shape {
          dim {
            size: -1
          }
          dim {
            size: 1
          }
        }
      }
    }
  }
  attr {
    key: "output_types"
    value {
      list {
        type: DT_FLOAT
        type: DT_FLOAT
      }
    }
  }
  attr {
    key: "shared_name"
    value {
      s: ""
    }
  }
}
node {
  name: "IteratorToStringHandle"
  op: "IteratorToStringHandle"
  input: "OneShotIterator"
  device: "/device:CPU:0"
  attr {
    key: "_class"
    value {
      list {
        s: "loc:@RepeatDataset"
      }
    }
  }
  attr {
    key: "_output_shapes"
    value {
      list {
        shape {
        }
      }
    }
  }
}
node {
  name: "IteratorGetNext"
  op: "IteratorGetNext"
  input: "OneShotIterator"
  device: "/device:CPU:0"
  attr {
    key: "_class"
    value {
      list {
        s: "loc:@RepeatDataset"
      }
    }
  }
  attr {
    key: "_output_shapes"
    value {
      list {
        shape {
          dim {
            size: -1
          }
          dim {
            size: 20
          }
        }
        shape {
          dim {
            size: -1
          }
          dim {
            size: 1
          }
        }
      }
    }
  }
  attr {
    key: "output_shapes"
    value {
      list {
        shape {
          dim {
            size: -1
          }
          dim {
            size: 20
          }
        }
        shape {
          dim {
            size: -1
          }
          dim {
            size: 1
          }
        }
      }
    }
  }
  attr {
    key: "output_types"
    value {
      list {
        type: DT_FLOAT
        type: DT_FLOAT
      }
    }
  }
}
node {
  name: "adanet/iteration_0/subnetwork_t0_linear/step/Initializer/zeros"
  op: "Const"
  attr {
    key: "_class"
    value {
      list {
        s: "loc:@adanet/iteration_0/subnetwork_t0_linear/step"
      }
    }
  }
  attr {
    key: "_output_shapes"
    value {
      list {
        shape {
        }
      }
    }
  }
  attr {
    key: "dtype"
    value {
      type: DT_INT64
    }
  }
  attr {
    key: "value"
    value {
      tensor {
        dtype: DT_INT64
        tensor_shape {
        }
        int64_val: 0
      }
    }
  }
}
node {
  name: "adanet/iteration_0/subnetwork_t0_linear/step"
  op: "VarHandleOp"
  attr {
    key: "_class"
    value {
      list {
        s: "loc:@adanet/iteration_0/subnetwork_t0_linear/step"
      }
    }
  }
  attr {
    key: "_output_shapes"
    value {
      list {
        shape {
        }
      }
    }
  }
  attr {
    key: "allowed_devices"
    value {
      list {
      }
    }
  }
  attr {
    key: "container"
    value {
      s: ""
    }
  }
  attr {
    key: "dtype"
    value {
      type: DT_INT64
    }
  }
  attr {
    key: "shape"
    value {
      shape {
      }
    }
  }
  attr {
    key: "shared_name"
    value {
      s: "adanet/iteration_0/subnetwork_t0_linear/step"
    }
  }
}
node {
  name: "adanet/iteration_0/subnetwork_t0_linear/step/IsInitialized/VarIsInitializedOp"
  op: "VarIsInitializedOp"
  input: "adanet/iteration_0/subnetwork_t0_linear/step"
  attr {
    key: "_output_shapes"
    value {
      list {
        shape {
        }
      }
    }
  }
}
node {
  name: "adanet/iteration_0/subnetwork_t0_linear/step/Assign"
  op: "AssignVariableOp"
  input: "adanet/iteration_0/subnetwork_t0_linear/step"
  input: "adanet/iteration_0/subnetwork_t0_linear/step/Initializer/zeros"
  attr {
    key: "dtype"
    value {
      type: DT_INT64
    }
  }
  attr {
    key: "validate_shape"
    value {
      b: false
    }
  }
}
node {
  name: "adanet/iteration_0/subnetwork_t0_linear/step/Read/ReadVariableOp"
  op: "ReadVariableOp"
  input: "adanet/iteration_0/subnetwork_t0_linear/step"
  attr {
    key: "_output_shapes"
    value {
      list {
        shape {
        }
      }
    }
  }
  attr {
    key: "dtype"
    value {
      type: DT_INT64
    }
  }
}
node {
  name: "adanet/iteration_0/subnetwork_t0_linear/ReadVariableOp"
  op: "ReadVariableOp"
  input: "adanet/iteration_0/subnetwork_t0_linear/step"
  attr {
    key: "_output_shapes"
    value {
      list {
        shape {
        }
      }
    }
  }
  attr {
    key: "dtype"
    value {
      type: DT_INT64
    }
  }
}
node {
  name: "adanet/iteration_0/subnetwork_t0_linear/Reshape/shape"
  op: "Const"
  attr {
    key: "_output_shapes"
    value {
      list {
        shape {
          dim {
          }
        }
      }
    }
  }
  attr {
    key: "dtype"
    value {
      type: DT_FLOAT
    }
  }
  attr {
    key: "value"
    value {
      tensor {
        dtype: DT_FLOAT
        tensor_shape {
          dim {
          }
        }
      }
    }
  }
}
node {
  name: "adanet/iteration_0/subnetwork_t0_linear/Reshape/shape_1"
  op: "Const"
  attr {
    key: "_output_shapes"
    value {
      list {
        shape {
          dim {
          }
        }
      }
    }
  }
  attr {
    key: "dtype"
    value {
      type: DT_INT32
    }
  }
  attr {
    key: "value"
    value {
      tensor {
        dtype: DT_INT32
        tensor_shape {
          dim {
          }
        }
      }
    }
  }
}
node {
  name: "adanet/iteration_0/subnetwork_t0_linear/Reshape"
  op: "Reshape"
  input: "adanet/iteration_0/subnetwork_t0_linear/ReadVariableOp"
  input: "adanet/iteration_0/subnetwork_t0_linear/Reshape/shape_1"
  attr {
    key: "T"
    value {
      type: DT_INT64
    }
  }
  attr {
    key: "Tshape"
    value {
      type: DT_INT32
    }
  }
  attr {
    key: "_output_shapes"
    value {
      list {
        shape {
        }
      }
    }
  }
}
node {
  name: "adanet/iteration_0/subnetwork_t0_linear/Reshape_1/shape"
  op: "Const"
  attr {
    key: "_output_shapes"
    value {
      list {
        shape {
          dim {
            size: 2
          }
        }
      }
    }
  }
  attr {
    key: "dtype"
    value {
      type: DT_INT32
    }
  }
  attr {
    key: "value"
    value {
      tensor {
        dtype: DT_INT32
        tensor_shape {
          dim {
            size: 2
          }
        }
        tensor_content: "\377\377\377\377\024\000\000\000"
      }
    }
  }
}
node {
  name: "adanet/iteration_0/subnetwork_t0_linear/Reshape_1"
  op: "Reshape"
  input: "IteratorGetNext"
  input: "adanet/iteration_0/subnetwork_t0_linear/Reshape_1/shape"
  attr {
    key: "T"
    value {
      type: DT_FLOAT
    }
  }
  attr {
    key: "Tshape"
    value {
      type: DT_INT32
    }
  }
  attr {
    key: "_output_shapes"
    value {
      list {
        shape {
          dim {
            size: -1
          }
          dim {
            size: 20
          }
        }
      }
    }
  }
}
node {
  name: "keras_learning_phase/input"
  op: "Const"
  attr {
    key: "_output_shapes"
    value {
      list {
        shape {
        }
      }
    }
  }
  attr {
    key: "dtype"
    value {
      type: DT_BOOL
    }
  }
  attr {
    key: "value"
    value {
      tensor {
        dtype: DT_BOOL
        tensor_shape {
        }
        bool_val: false
      }
    }
  }
}
node {
  name: "keras_learning_phase"
  op: "PlaceholderWithDefault"
  input: "keras_learning_phase/input"
  attr {
    key: "_output_shapes"
    value {
      list {
        shape {
        }
      }
    }
  }
  attr {
    key: "dtype"
    value {
      type: DT_BOOL
    }
  }
  attr {
    key: "shape"
    value {
      shape {
      }
    }
  }
}
node {
  name: "adanet/iteration_0/subnetwork_t0_linear/nan_masking_layer/IsNan"
  op: "IsNan"
  input: "adanet/iteration_0/subnetwork_t0_linear/Reshape_1"
  attr {
    key: "T"
    value {
      type: DT_FLOAT
    }
  }
  attr {
    key: "_output_shapes"
    value {
      list {
        shape {
          dim {
            size: -1
          }
          dim {
            size: 20
          }
        }
      }
    }
  }
}
node {
  name: "adanet/iteration_0/subnetwork_t0_linear/nan_masking_layer/ones_like/Shape"
  op: "Shape"
  input: "adanet/iteration_0/subnetwork_t0_linear/Reshape_1"
  attr {
    key: "T"
    value {
      type: DT_FLOAT
    }
  }
  attr {
    key: "_output_shapes"
    value {
      list {
        shape {
          dim {
            size: 2
          }
        }
      }
    }
  }
  attr {
    key: "out_type"
    value {
      type: DT_INT32
    }
  }
}
node {
  name: "adanet/iteration_0/subnetwork_t0_linear/nan_masking_layer/ones_like/Const"
  op: "Const"
  attr {
    key: "_output_shapes"
    value {
      list {
        shape {
        }
      }
    }
  }
  attr {
    key: "dtype"
    value {
      type: DT_FLOAT
    }
  }
  attr {
    key: "value"
    value {
      tensor {
        dtype: DT_FLOAT
        tensor_shape {
        }
        float_val: 1.0
      }
    }
  }
}
node {
  name: "adanet/iteration_0/subnetwork_t0_linear/nan_masking_layer/ones_like"
  op: "Fill"
  input: "adanet/iteration_0/subnetwork_t0_linear/nan_masking_layer/ones_like/Shape"
  input: "adanet/iteration_0/subnetwork_t0_linear/nan_masking_layer/ones_like/Const"
  attr {
    key: "T"
    value {
      type: DT_FLOAT
    }
  }
  attr {
    key: "_output_shapes"
    value {
      list {
        shape {
          dim {
            size: -1
          }
          dim {
            size: 20
          }
        }
      }
    }
  }
  attr {
    key: "index_type"
    value {
      type: DT_INT32
    }
  }
}
node {
  name: "adanet/iteration_0/subnetwork_t0_linear/nan_masking_layer/mul/y"
  op: "Const"
  attr {
    key: "_output_shapes"
    value {
      list {
        shape {
        }
      }
    }
  }
  attr {
    key: "dtype"
    value {
      type: DT_FLOAT
    }
  }
  attr {
    key: "value"
    value {
      tensor {
        dtype: DT_FLOAT
        tensor_shape {
        }
        float_val: 0.0
      }
    }
  }
}
node {
  name: "adanet/iteration_0/subnetwork_t0_linear/nan_masking_layer/mul"
  op: "Mul"
  input: "adanet/iteration_0/subnetwork_t0_linear/nan_masking_layer/ones_like"
  input: "adanet/iteration_0/subnetwork_t0_linear/nan_masking_layer/mul/y"
  attr {
    key: "T"
    value {
      type: DT_FLOAT
    }
  }
  attr {
    key: "_output_shapes"
    value {
      list {
        shape {
          dim {
            size: -1
          }
          dim {
            size: 20
          }
        }
      }
    }
  }
}
node {
  name: "adanet/iteration_0/subnetwork_t0_linear/nan_masking_layer/Select"
  op: "Select"
  input: "adanet/iteration_0/subnetwork_t0_linear/nan_masking_layer/IsNan"
  input: "adanet/iteration_0/subnetwork_t0_linear/nan_masking_layer/mul"
  input: "adanet/iteration_0/subnetwork_t0_linear/Reshape_1"
  attr {
    key: "T"
    value {
      type: DT_FLOAT
    }
  }
  attr {
    key: "_output_shapes"
    value {
      list {
        shape {
          dim {
            size: -1
          }
          dim {
            size: 20
          }
        }
      }
    }
  }
}
node {
  name: "adanet/iteration_0/subnetwork_t0_linear/dense/kernel/Initializer/random_uniform/shape"
  op: "Const"
  attr {
    key: "_class"
    value {
      list {
        s: "loc:@adanet/iteration_0/subnetwork_t0_linear/dense/kernel"
      }
    }
  }
  attr {
    key: "_output_shapes"
    value {
      list {
        shape {
          dim {
            size: 2
          }
        }
      }
    }
  }
  attr {
    key: "dtype"
    value {
      type: DT_INT32
    }
  }
  attr {
    key: "value"
    value {
      tensor {
        dtype: DT_INT32
        tensor_shape {
          dim {
            size: 2
          }
        }
        tensor_content: "\024\000\000\000\001\000\000\000"
      }
    }
  }
}
node {
  name: "adanet/iteration_0/subnetwork_t0_linear/dense/kernel/Initializer/random_uniform/min"
  op: "Const"
  attr {
    key: "_class"
    value {
      list {
        s: "loc:@adanet/iteration_0/subnetwork_t0_linear/dense/kernel"
      }
    }
  }
  attr {
    key: "_output_shapes"
    value {
      list {
        shape {
        }
      }
    }
  }
  attr {
    key: "dtype"
    value {
      type: DT_FLOAT
    }
  }
  attr {
    key: "value"
    value {
      tensor {
        dtype: DT_FLOAT
        tensor_shape {
        }
        float_val: -0.5345224738121033
      }
    }
  }
}
node {
  name: "adanet/iteration_0/subnetwork_t0_linear/dense/kernel/Initializer/random_uniform/max"
  op: "Const"
  attr {
    key: "_class"
    value {
      list {
        s: "loc:@adanet/iteration_0/subnetwork_t0_linear/dense/kernel"
      }
    }
  }
  attr {
    key: "_output_shapes"
    value {
      list {
        shape {
        }
      }
    }
  }
  attr {
    key: "dtype"
    value {
      type: DT_FLOAT
    }
  }
  attr {
    key: "value"
    value {
      tensor {
        dtype: DT_FLOAT
        tensor_shape {
        }
        float_val: 0.5345224738121033
      }
    }
  }
}
node {
  name: "adanet/iteration_0/subnetwork_t0_linear/dense/kernel/Initializer/random_uniform/RandomUniform"
  op: "RandomUniform"
  input: "adanet/iteration_0/subnetwork_t0_linear/dense/kernel/Initializer/random_uniform/shape"
  attr {
    key: "T"
    value {
      type: DT_INT32
    }
  }
  attr {
    key: "_class"
    value {
      list {
        s: "loc:@adanet/iteration_0/subnetwork_t0_linear/dense/kernel"
      }
    }
  }
  attr {
    key: "_output_shapes"
    value {
      list {
        shape {
          dim {
            size: 20
          }
          dim {
            size: 1
          }
        }
      }
    }
  }
  attr {
    key: "dtype"
    value {
      type: DT_FLOAT
    }
  }
  attr {
    key: "seed"
    value {
      i: 42
    }
  }
  attr {
    key: "seed2"
    value {
      i: 1
    }
  }
}
node {
  name: "adanet/iteration_0/subnetwork_t0_linear/dense/kernel/Initializer/random_uniform/sub"
  op: "Sub"
  input: "adanet/iteration_0/subnetwork_t0_linear/dense/kernel/Initializer/random_uniform/max"
  input: "adanet/iteration_0/subnetwork_t0_linear/dense/kernel/Initializer/random_uniform/min"
  attr {
    key: "T"
    value {
      type: DT_FLOAT
    }
  }
  attr {
    key: "_class"
    value {
      list {
        s: "loc:@adanet/iteration_0/subnetwork_t0_linear/dense/kernel"
      }
    }
  }
  attr {
    key: "_output_shapes"
    value {
      list {
        shape {
        }
      }
    }
  }
}
node {
  name: "adanet/iteration_0/subnetwork_t0_linear/dense/kernel/Initializer/random_uniform/mul"
  op: "Mul"
  input: "adanet/iteration_0/subnetwork_t0_linear/dense/kernel/Initializer/random_uniform/RandomUniform"
  input: "adanet/iteration_0/subnetwork_t0_linear/dense/kernel/Initializer/random_uniform/sub"
  attr {
    key: "T"
    value {
      type: DT_FLOAT
    }
  }
  attr {
    key: "_class"
    value {
      list {
        s: "loc:@adanet/iteration_0/subnetwork_t0_linear/dense/kernel"
      }
    }
  }
  attr {
    key: "_output_shapes"
    value {
      list {
        shape {
          dim {
            size: 20
          }
          dim {
            size: 1
          }
        }
      }
    }
  }
}
node {
  name: "adanet/iteration_0/subnetwork_t0_linear/dense/kernel/Initializer/random_uniform"
  op: "AddV2"
  input: "adanet/iteration_0/subnetwork_t0_linear/dense/kernel/Initializer/random_uniform/mul"
  input: "adanet/iteration_0/subnetwork_t0_linear/dense/kernel/Initializer/random_uniform/min"
  attr {
    key: "T"
    value {
      type: DT_FLOAT
    }
  }
  attr {
    key: "_class"
    value {
      list {
        s: "loc:@adanet/iteration_0/subnetwork_t0_linear/dense/kernel"
      }
    }
  }
  attr {
    key: "_output_shapes"
    value {
      list {
        shape {
          dim {
            size: 20
          }
          dim {
            size: 1
          }
        }
      }
    }
  }
}
node {
  name: "adanet/iteration_0/subnetwork_t0_linear/dense/kernel"
  op: "VarHandleOp"
  attr {
    key: "_class"
    value {
      list {
        s: "loc:@adanet/iteration_0/subnetwork_t0_linear/dense/kernel"
      }
    }
  }
  attr {
    key: "_output_shapes"
    value {
      list {
        shape {
        }
      }
    }
  }
  attr {
    key: "allowed_devices"
    value {
      list {
      }
    }
  }
  attr {
    key: "container"
    value {
      s: ""
    }
  }
  attr {
    key: "dtype"
    value {
      type: DT_FLOAT
    }
  }
  attr {
    key: "shape"
    value {
      shape {
        dim {
          size: 20
        }
        dim {
          size: 1
        }
      }
    }
  }
  attr {
    key: "shared_name"
    value {
      s: "adanet/iteration_0/subnetwork_t0_linear/dense/kernel"
    }
  }
}
node {
  name: "adanet/iteration_0/subnetwork_t0_linear/dense/kernel/IsInitialized/VarIsInitializedOp"
  op: "VarIsInitializedOp"
  input: "adanet/iteration_0/subnetwork_t0_linear/dense/kernel"
  attr {
    key: "_output_shapes"
    value {
      list {
        shape {
        }
      }
    }
  }
}
node {
  name: "adanet/iteration_0/subnetwork_t0_linear/dense/kernel/Assign"
  op: "AssignVariableOp"
  input: "adanet/iteration_0/subnetwork_t0_linear/dense/kernel"
  input: "adanet/iteration_0/subnetwork_t0_linear/dense/kernel/Initializer/random_uniform"
  attr {
    key: "dtype"
    value {
      type: DT_FLOAT
    }
  }
  attr {
    key: "validate_shape"
    value {
      b: false
    }
  }
}
node {
  name: "adanet/iteration_0/subnetwork_t0_linear/dense/kernel/Read/ReadVariableOp"
  op: "ReadVariableOp"
  input: "adanet/iteration_0/subnetwork_t0_linear/dense/kernel"
  attr {
    key: "_output_shapes"
    value {
      list {
        shape {
          dim {
            size: 20
          }
          dim {
            size: 1
          }
        }
      }
    }
  }
  attr {
    key: "dtype"
    value {
      type: DT_FLOAT
    }
  }
}
node {
  name: "adanet/iteration_0/subnetwork_t0_linear/dense/bias/Initializer/zeros"
  op: "Const"
  attr {
    key: "_class"
    value {
      list {
        s: "loc:@adanet/iteration_0/subnetwork_t0_linear/dense/bias"
      }
    }
  }
  attr {
    key: "_output_shapes"
    value {
      list {
        shape {
          dim {
            size: 1
          }
        }
      }
    }
  }
  attr {
    key: "dtype"
    value {
      type: DT_FLOAT
    }
  }
  attr {
    key: "value"
    value {
      tensor {
        dtype: DT_FLOAT
        tensor_shape {
          dim {
            size: 1
          }
        }
        float_val: 0.0
      }
    }
  }
}
node {
  name: "adanet/iteration_0/subnetwork_t0_linear/dense/bias"
  op: "VarHandleOp"
  attr {
    key: "_class"
    value {
      list {
        s: "loc:@adanet/iteration_0/subnetwork_t0_linear/dense/bias"
      }
    }
  }
  attr {
    key: "_output_shapes"
    value {
      list {
        shape {
        }
      }
    }
  }
  attr {
    key: "allowed_devices"
    value {
      list {
      }
    }
  }
  attr {
    key: "container"
    value {
      s: ""
    }
  }
  attr {
    key: "dtype"
    value {
      type: DT_FLOAT
    }
  }
  attr {
    key: "shape"
    value {
      shape {
        dim {
          size: 1
        }
      }
    }
  }
  attr {
    key: "shared_name"
    value {
      s: "adanet/iteration_0/subnetwork_t0_linear/dense/bias"
    }
  }
}
node {
  name: "adanet/iteration_0/subnetwork_t0_linear/dense/bias/IsInitialized/VarIsInitializedOp"
  op: "VarIsInitializedOp"
  input: "adanet/iteration_0/subnetwork_t0_linear/dense/bias"
  attr {
    key: "_output_shapes"
    value {
      list {
        shape {
        }
      }
    }
  }
}
node {
  name: "adanet/iteration_0/subnetwork_t0_linear/dense/bias/Assign"
  op: "AssignVariableOp"
  input: "adanet/iteration_0/subnetwork_t0_linear/dense/bias"
  input: "adanet/iteration_0/subnetwork_t0_linear/dense/bias/Initializer/zeros"
  attr {
    key: "dtype"
    value {
      type: DT_FLOAT
    }
  }
  attr {
    key: "validate_shape"
    value {
      b: false
    }
  }
}
node {
  name: "adanet/iteration_0/subnetwork_t0_linear/dense/bias/Read/ReadVariableOp"
  op: "ReadVariableOp"
  input: "adanet/iteration_0/subnetwork_t0_linear/dense/bias"
  attr {
    key: "_output_shapes"
    value {
      list {
        shape {
          dim {
            size: 1
          }
        }
      }
    }
  }
  attr {
    key: "dtype"
    value {
      type: DT_FLOAT
    }
  }
}
node {
  name: "adanet/iteration_0/subnetwork_t0_linear/dense/MatMul/ReadVariableOp"
  op: "ReadVariableOp"
  input: "adanet/iteration_0/subnetwork_t0_linear/dense/kernel"
  attr {
    key: "_output_shapes"
    value {
      list {
        shape {
          dim {
            size: 20
          }
          dim {
            size: 1
          }
        }
      }
    }
  }
  attr {
    key: "dtype"
    value {
      type: DT_FLOAT
    }
  }
}
node {
  name: "adanet/iteration_0/subnetwork_t0_linear/dense/MatMul"
  op: "MatMul"
  input: "adanet/iteration_0/subnetwork_t0_linear/nan_masking_layer/Select"
  input: "adanet/iteration_0/subnetwork_t0_linear/dense/MatMul/ReadVariableOp"
  attr {
    key: "T"
    value {
      type: DT_FLOAT
    }
  }
  attr {
    key: "_output_shapes"
    value {
      list {
        shape {
          dim {
            size: -1
          }
          dim {
            size: 1
          }
        }
      }
    }
  }
  attr {
    key: "transpose_a"
    value {
      b: false
    }
  }
  attr {
    key: "transpose_b"
    value {
      b: false
    }
  }
}
node {
  name: "adanet/iteration_0/subnetwork_t0_linear/dense/BiasAdd/ReadVariableOp"
  op: "ReadVariableOp"
  input: "adanet/iteration_0/subnetwork_t0_linear/dense/bias"
  attr {
    key: "_output_shapes"
    value {
      list {
        shape {
          dim {
            size: 1
          }
        }
      }
    }
  }
  attr {
    key: "dtype"
    value {
      type: DT_FLOAT
    }
  }
}
node {
  name: "adanet/iteration_0/subnetwork_t0_linear/dense/BiasAdd"
  op: "BiasAdd"
  input: "adanet/iteration_0/subnetwork_t0_linear/dense/MatMul"
  input: "adanet/iteration_0/subnetwork_t0_linear/dense/BiasAdd/ReadVariableOp"
  attr {
    key: "T"
    value {
      type: DT_FLOAT
    }
  }
  attr {
    key: "_output_shapes"
    value {
      list {
        shape {
          dim {
            size: -1
          }
          dim {
            size: 1
          }
        }
      }
    }
  }
  attr {
    key: "data_format"
    value {
      s: "NHWC"
    }
  }
}
node {
  name: "adanet/iteration_0/subnetwork_t0_linear/Const"
  op: "Const"
  attr {
    key: "_output_shapes"
    value {
      list {
        shape {
        }
      }
    }
  }
  attr {
    key: "dtype"
    value {
      type: DT_INT32
    }
  }
  attr {
    key: "value"
    value {
      tensor {
        dtype: DT_INT32
        tensor_shape {
        }
        int_val: 0
      }
    }
  }
}
node {
  name: "adanet/iteration_0/subnetwork_t0_linear/Cast/x"
  op: "Const"
  attr {
    key: "_output_shapes"
    value {
      list {
        shape {
        }
      }
    }
  }
  attr {
    key: "dtype"
    value {
      type: DT_INT32
    }
  }
  attr {
    key: "value"
    value {
      tensor {
        dtype: DT_INT32
        tensor_shape {
        }
        int_val: 0
      }
    }
  }
}
node {
  name: "adanet/iteration_0/subnetwork_t0_linear/Cast"
  op: "Cast"
  input: "adanet/iteration_0/subnetwork_t0_linear/Cast/x"
  attr {
    key: "DstT"
    value {
      type: DT_FLOAT
    }
  }
  attr {
    key: "SrcT"
    value {
      type: DT_INT32
    }
  }
  attr {
    key: "Truncate"
    value {
      b: false
    }
  }
  attr {
    key: "_output_shapes"
    value {
      list {
        shape {
        }
      }
    }
  }
}
node {
  name: "adanet/iteration_0/subnetwork_t0_linear/Sqrt"
  op: "Sqrt"
  input: "adanet/iteration_0/subnetwork_t0_linear/Cast"
  attr {
    key: "T"
    value {
      type: DT_FLOAT
    }
  }
  attr {
    key: "_output_shapes"
    value {
      list {
        shape {
        }
      }
    }
  }
}
node {
  name: "adanet/iteration_0/subnetwork_t0_linear/head/logits/Shape"
  op: "Shape"
  input: "adanet/iteration_0/subnetwork_t0_linear/dense/BiasAdd"
  attr {
    key: "T"
    value {
      type: DT_FLOAT
    }
  }
  attr {
    key: "_output_shapes"
    value {
      list {
        shape {
          dim {
            size: 2
          }
        }
      }
    }
  }
  attr {
    key: "out_type"
    value {
      type: DT_INT32
    }
  }
}
node {
  name: "adanet/iteration_0/subnetwork_t0_linear/head/logits/assert_rank_at_least/rank"
  op: "Const"
  attr {
    key: "_output_shapes"
    value {
      list {
        shape {
        }
      }
    }
  }
  attr {
    key: "dtype"
    value {
      type: DT_INT32
    }
  }
  attr {
    key: "value"
    value {
      tensor {
        dtype: DT_INT32
        tensor_shape {
        }
        int_val: 2
      }
    }
  }
}
node {
  name: "adanet/iteration_0/subnetwork_t0_linear/head/logits/assert_rank_at_least/assert_type/statically_determined_correct_type"
  op: "NoOp"
}
node {
  name: "adanet/iteration_0/subnetwork_t0_linear/head/logits/assert_rank_at_least/static_checks_determined_all_ok"
  op: "NoOp"
}
node {
  name: "adanet/iteration_0/subnetwork_t0_linear/head/losses/logits/Shape"
  op: "Shape"
  input: "adanet/iteration_0/subnetwork_t0_linear/dense/BiasAdd"
  attr {
    key: "T"
    value {
      type: DT_FLOAT
    }
  }
  attr {
    key: "_output_shapes"
    value {
      list {
        shape {
          dim {
            size: 2
          }
        }
      }
    }
  }
  attr {
    key: "out_type"
    value {
      type: DT_INT32
    }
  }
}
node {
  name: "adanet/iteration_0/subnetwork_t0_linear/head/losses/logits/assert_rank_at_least/rank"
  op: "Const"
  attr {
    key: "_output_shapes"
    value {
      list {
        shape {
        }
      }
    }
  }
  attr {
    key: "dtype"
    value {
      type: DT_INT32
    }
  }
  attr {
    key: "value"
    value {
      tensor {
        dtype: DT_INT32
        tensor_shape {
        }
        int_val: 2
      }
    }
  }
}
node {
  name: "adanet/iteration_0/subnetwork_t0_linear/head/losses/logits/assert_rank_at_least/assert_type/statically_determined_correct_type"
  op: "NoOp"
}
node {
  name: "adanet/iteration_0/subnetwork_t0_linear/head/losses/logits/assert_rank_at_least/static_checks_determined_all_ok"
  op: "NoOp"
}
node {
  name: "adanet/iteration_0/subnetwork_t0_linear/head/losses/labels/assert_rank_at_least/rank"
  op: "Const"
  attr {
    key: "_output_shapes"
    value {
      list {
        shape {
        }
      }
    }
  }
  attr {
    key: "dtype"
    value {
      type: DT_INT32
    }
  }
  attr {
    key: "value"
    value {
      tensor {
        dtype: DT_INT32
        tensor_shape {
        }
        int_val: 2
      }
    }
  }
}
node {
  name: "adanet/iteration_0/subnetwork_t0_linear/head/losses/labels/assert_rank_at_least/Shape"
  op: "Shape"
  input: "IteratorGetNext:1"
  attr {
    key: "T"
    value {
      type: DT_FLOAT
    }
  }
  attr {
    key: "_output_shapes"
    value {
      list {
        shape {
          dim {
            size: 2
          }
        }
      }
    }
  }
  attr {
    key: "out_type"
    value {
      type: DT_INT32
    }
  }
}
node {
  name: "adanet/iteration_0/subnetwork_t0_linear/head/losses/labels/assert_rank_at_least/assert_type/statically_determined_correct_type"
  op: "NoOp"
}
node {
  name: "adanet/iteration_0/subnetwork_t0_linear/head/losses/labels/assert_rank_at_least/static_checks_determined_all_ok"
  op: "NoOp"
}
node {
  name: "adanet/iteration_0/subnetwork_t0_linear/head/losses/labels/Shape"
  op: "Shape"
  input: "adanet/iteration_0/subnetwork_t0_linear/dense/BiasAdd"
  input: "^adanet/iteration_0/subnetwork_t0_linear/head/losses/labels/assert_rank_at_least/static_checks_determined_all_ok"
  attr {
    key: "T"
    value {
      type: DT_FLOAT
    }
  }
  attr {
    key: "_output_shapes"
    value {
      list {
        shape {
          dim {
            size: 2
          }
        }
      }
    }
  }
  attr {
    key: "out_type"
    value {
      type: DT_INT32
    }
  }
}
node {
  name: "adanet/iteration_0/subnetwork_t0_linear/head/losses/labels/strided_slice/stack"
  op: "Const"
  input: "^adanet/iteration_0/subnetwork_t0_linear/head/losses/labels/assert_rank_at_least/static_checks_determined_all_ok"
  attr {
    key: "_output_shapes"
    value {
      list {
        shape {
          dim {
            size: 1
          }
        }
      }
    }
  }
  attr {
    key: "dtype"
    value {
      type: DT_INT32
    }
  }
  attr {
    key: "value"
    value {
      tensor {
        dtype: DT_INT32
        tensor_shape {
          dim {
            size: 1
          }
        }
        int_val: 0
      }
    }
  }
}
node {
  name: "adanet/iteration_0/subnetwork_t0_linear/head/losses/labels/strided_slice/stack_1"
  op: "Const"
  input: "^adanet/iteration_0/subnetwork_t0_linear/head/losses/labels/assert_rank_at_least/static_checks_determined_all_ok"
  attr {
    key: "_output_shapes"
    value {
      list {
        shape {
          dim {
            size: 1
          }
        }
      }
    }
  }
  attr {
    key: "dtype"
    value {
      type: DT_INT32
    }
  }
  attr {
    key: "value"
    value {
      tensor {
        dtype: DT_INT32
        tensor_shape {
          dim {
            size: 1
          }
        }
        int_val: -1
      }
    }
  }
}
node {
  name: "adanet/iteration_0/subnetwork_t0_linear/head/losses/labels/strided_slice/stack_2"
  op: "Const"
  input: "^adanet/iteration_0/subnetwork_t0_linear/head/losses/labels/assert_rank_at_least/static_checks_determined_all_ok"
  attr {
    key: "_output_shapes"
    value {
      list {
        shape {
          dim {
            size: 1
          }
        }
      }
    }
  }
  attr {
    key: "dtype"
    value {
      type: DT_INT32
    }
  }
  attr {
    key: "value"
    value {
      tensor {
        dtype: DT_INT32
        tensor_shape {
          dim {
            size: 1
          }
        }
        int_val: 1
      }
    }
  }
}
node {
  name: "adanet/iteration_0/subnetwork_t0_linear/head/losses/labels/strided_slice"
  op: "StridedSlice"
  input: "adanet/iteration_0/subnetwork_t0_linear/head/losses/labels/Shape"
  input: "adanet/iteration_0/subnetwork_t0_linear/head/losses/labels/strided_slice/stack"
  input: "adanet/iteration_0/subnetwork_t0_linear/head/losses/labels/strided_slice/stack_1"
  input: "adanet/iteration_0/subnetwork_t0_linear/head/losses/labels/strided_slice/stack_2"
  attr {
    key: "Index"
    value {
      type: DT_INT32
    }
  }
  attr {
    key: "T"
    value {
      type: DT_INT32
    }
  }
  attr {
    key: "_output_shapes"
    value {
      list {
        shape {
          dim {
            size: 1
          }
        }
      }
    }
  }
  attr {
    key: "begin_mask"
    value {
      i: 1
    }
  }
  attr {
    key: "ellipsis_mask"
    value {
      i: 0
    }
  }
  attr {
    key: "end_mask"
    value {
      i: 0
    }
  }
  attr {
    key: "new_axis_mask"
    value {
      i: 0
    }
  }
  attr {
    key: "shrink_axis_mask"
    value {
      i: 0
    }
  }
}
node {
  name: "adanet/iteration_0/subnetwork_t0_linear/head/losses/labels/concat/values_1"
  op: "Const"
  input: "^adanet/iteration_0/subnetwork_t0_linear/head/losses/labels/assert_rank_at_least/static_checks_determined_all_ok"
  attr {
    key: "_output_shapes"
    value {
      list {
        shape {
          dim {
            size: 1
          }
        }
      }
    }
  }
  attr {
    key: "dtype"
    value {
      type: DT_INT32
    }
  }
  attr {
    key: "value"
    value {
      tensor {
        dtype: DT_INT32
        tensor_shape {
          dim {
            size: 1
          }
        }
        int_val: 1
      }
    }
  }
}
node {
  name: "adanet/iteration_0/subnetwork_t0_linear/head/losses/labels/concat/axis"
  op: "Const"
  input: "^adanet/iteration_0/subnetwork_t0_linear/head/losses/labels/assert_rank_at_least/static_checks_determined_all_ok"
  attr {
    key: "_output_shapes"
    value {
      list {
        shape {
        }
      }
    }
  }
  attr {
    key: "dtype"
    value {
      type: DT_INT32
    }
  }
  attr {
    key: "value"
    value {
      tensor {
        dtype: DT_INT32
        tensor_shape {
        }
        int_val: 0
      }
    }
  }
}
node {
  name: "adanet/iteration_0/subnetwork_t0_linear/head/losses/labels/concat"
  op: "ConcatV2"
  input: "adanet/iteration_0/subnetwork_t0_linear/head/losses/labels/strided_slice"
  input: "adanet/iteration_0/subnetwork_t0_linear/head/losses/labels/concat/values_1"
  input: "adanet/iteration_0/subnetwork_t0_linear/head/losses/labels/concat/axis"
  attr {
    key: "N"
    value {
      i: 2
    }
  }
  attr {
    key: "T"
    value {
      type: DT_INT32
    }
  }
  attr {
    key: "Tidx"
    value {
      type: DT_INT32
    }
  }
  attr {
    key: "_output_shapes"
    value {
      list {
        shape {
          dim {
            size: 2
          }
        }
      }
    }
  }
}
node {
  name: "adanet/iteration_0/subnetwork_t0_linear/head/losses/labels/Shape_1"
  op: "Shape"
  input: "IteratorGetNext:1"
  input: "^adanet/iteration_0/subnetwork_t0_linear/head/losses/labels/assert_rank_at_least/static_checks_determined_all_ok"
  attr {
    key: "T"
    value {
      type: DT_FLOAT
    }
  }
  attr {
    key: "_output_shapes"
    value {
      list {
        shape {
          dim {
            size: 2
          }
        }
      }
    }
  }
  attr {
    key: "out_type"
    value {
      type: DT_INT32
    }
  }
}
node {
  name: "adanet/iteration_0/subnetwork_t0_linear/head/losses/labels/assert_equal_1/Equal"
  op: "Equal"
  input: "adanet/iteration_0/subnetwork_t0_linear/head/losses/labels/concat"
  input: "adanet/iteration_0/subnetwork_t0_linear/head/losses/labels/Shape_1"
  attr {
    key: "T"
    value {
      type: DT_INT32
    }
  }
  attr {
    key: "_output_shapes"
    value {
      list {
        shape {
          dim {
            size: 2
          }
        }
      }
    }
  }
  attr {
    key: "incompatible_shape_error"
    value {
      b: true
    }
  }
}
node {
  name: "adanet/iteration_0/subnetwork_t0_linear/head/losses/labels/assert_equal_1/Const"
  op: "Const"
  input: "^adanet/iteration_0/subnetwork_t0_linear/head/losses/labels/assert_rank_at_least/static_checks_determined_all_ok"
  attr {
    key: "_output_shapes"
    value {
      list {
        shape {
          dim {
            size: 1
          }
        }
      }
    }
  }
  attr {
    key: "dtype"
    value {
      type: DT_INT32
    }
  }
  attr {
    key: "value"
    value {
      tensor {
        dtype: DT_INT32
        tensor_shape {
          dim {
            size: 1
          }
        }
        int_val: 0
      }
    }
  }
}
node {
  name: "adanet/iteration_0/subnetwork_t0_linear/head/losses/labels/assert_equal_1/All"
  op: "All"
  input: "adanet/iteration_0/subnetwork_t0_linear/head/losses/labels/assert_equal_1/Equal"
  input: "adanet/iteration_0/subnetwork_t0_linear/head/losses/labels/assert_equal_1/Const"
  attr {
    key: "Tidx"
    value {
      type: DT_INT32
    }
  }
  attr {
    key: "_output_shapes"
    value {
      list {
        shape {
        }
      }
    }
  }
  attr {
    key: "keep_dims"
    value {
      b: false
    }
  }
}
node {
  name: "adanet/iteration_0/subnetwork_t0_linear/head/losses/labels/assert_equal_1/Assert/Const"
  op: "Const"
  input: "^adanet/iteration_0/subnetwork_t0_linear/head/losses/labels/assert_rank_at_least/static_checks_determined_all_ok"
  attr {
    key: "_output_shapes"
    value {
      list {
        shape {
        }
      }
    }
  }
  attr {
    key: "dtype"
    value {
      type: DT_STRING
    }
  }
  attr {
    key: "value"
    value {
      tensor {
        dtype: DT_STRING
        tensor_shape {
        }
        string_val: "…"
      }
    }
  }
}
node {
  name: "adanet/iteration_0/subnetwork_t0_linear/head/losses/labels/assert_equal_1/Assert/Const_1"
  op: "Const"
  input: "^adanet/iteration_0/subnetwork_t0_linear/head/losses/labels/assert_rank_at_least/static_checks_determined_all_ok"
  attr {
    key: "_output_shapes"
    value {
      list {
        shape {
        }
      }
    }
  }
  attr {
    key: "dtype"
    value {
      type: DT_STRING
    }
  }
  attr {
    key: "value"
    value {
      tensor {
        dtype: DT_STRING
        tensor_shape {
        }
        string_val: "expected_labels_shape: "
      }
    }
  }
}
node {
  name: "adanet/iteration_0/subnetwork_t0_linear/head/losses/labels/assert_equal_1/Assert/Const_2"
  op: "Const"
  input: "^adanet/iteration_0/subnetwork_t0_linear/head/losses/labels/assert_rank_at_least/static_checks_determined_all_ok"
  attr {
    key: "_output_shapes"
    value {
      list {
        shape {
        }
      }
    }
  }
  attr {
    key: "dtype"
    value {
      type: DT_STRING
    }
  }
  attr {
    key: "value"
    value {
      tensor {
        dtype: DT_STRING
        tensor_shape {
        }
        string_val: "labels_shape: "
      }
    }
  }
}
node {
  name: "adanet/iteration_0/subnetwork_t0_linear/head/losses/labels/assert_equal_1/Assert/Assert/data_0"
  op: "Const"
  input: "^adanet/iteration_0/subnetwork_t0_linear/head/losses/labels/assert_rank_at_least/static_checks_determined_all_ok"
  attr {
    key: "_output_shapes"
    value {
      list {
        shape {
        }
      }
    }
  }
  attr {
    key: "dtype"
    value {
      type: DT_STRING
    }
  }
  attr {
    key: "value"
    value {
      tensor {
        dtype: DT_STRING
        tensor_shape {
        }
        string_val: "…"
      }
    }
  }
}
node {
  name: "adanet/iteration_0/subnetwork_t0_linear/head/losses/labels/assert_equal_1/Assert/Assert/data_1"
  op: "Const"
  input: "^adanet/iteration_0/subnetwork_t0_linear/head/losses/labels/assert_rank_at_least/static_checks_determined_all_ok"
  attr {
    key: "_output_shapes"
    value {
      list {
        shape {
        }
      }
    }
  }
  attr {
    key: "dtype"
    value {
      type: DT_STRING
    }
  }
  attr {
    key: "value"
    value {
      tensor {
        dtype: DT_STRING
        tensor_shape {
        }
        string_val: "expected_labels_shape: "
      }
    }
  }
}
node {
  name: "adanet/iteration_0/subnetwork_t0_linear/head/losses/labels/assert_equal_1/Assert/Assert/data_3"
  op: "Const"
  input: "^adanet/iteration_0/subnetwork_t0_linear/head/losses/labels/assert_rank_at_least/static_checks_determined_all_ok"
  attr {
    key: "_output_shapes"
    value {
      list {
        shape {
        }
      }
    }
  }
  attr {
    key: "dtype"
    value {
      type: DT_STRING
    }
  }
  attr {
    key: "value"
    value {
      tensor {
        dtype: DT_STRING
        tensor_shape {
        }
        string_val: "labels_shape: "
      }
    }
  }
}
node {
  name: "adanet/iteration_0/subnetwork_t0_linear/head/losses/labels/assert_equal_1/Assert/Assert"
  op: "Assert"
  input: "adanet/iteration_0/subnetwork_t0_linear/head/losses/labels/assert_equal_1/All"
  input: "adanet/iteration_0/subnetwork_t0_linear/head/losses/labels/assert_equal_1/Assert/Assert/data_0"
  input: "adanet/iteration_0/subnetwork_t0_linear/head/losses/labels/assert_equal_1/Assert/Assert/data_1"
  input: "adanet/iteration_0/subnetwork_t0_linear/head/losses/labels/concat"
  input: "adanet/iteration_0/subnetwork_t0_linear/head/losses/labels/assert_equal_1/Assert/Assert/data_3"
  input: "adanet/iteration_0/subnetwork_t0_linear/head/losses/labels/Shape_1"
  attr {
    key: "T"
    value {
      list {
        type: DT_STRING
        type: DT_STRING
        type: DT_INT32
        type: DT_STRING
        type: DT_INT32
      }
    }
  }
  attr {
    key: "summarize"
    value {
      i: 3
    }
  }
}
node {
  name: "adanet/iteration_0/subnetwork_t0_linear/head/losses/labels"
  op: "Identity"
  input: "IteratorGetNext:1"
  input: "^adanet/iteration_0/subnetwork_t0_linear/head/losses/labels/assert_equal_1/Assert/Assert"
  input: "^adanet/iteration_0/subnetwork_t0_linear/head/losses/labels/assert_rank_at_least/static_checks_determined_all_ok"
  attr {
    key: "T"
    value {
      type: DT_FLOAT
    }
  }
  attr {
    key: "_output_shapes"
    value {
      list {
        shape {
          dim {
            size: -1
          }
          dim {
            size: 1
          }
        }
      }
    }
  }
}
node {
  name: "adanet/iteration_0/subnetwork_t0_linear/head/losses/mean_squared_error/SquaredDifference"
  op: "SquaredDifference"
  input: "adanet/iteration_0/subnetwork_t0_linear/dense/BiasAdd"
  input: "adanet/iteration_0/subnetwork_t0_linear/head/losses/labels"
  attr {
    key: "T"
    value {
      type: DT_FLOAT
    }
  }
  attr {
    key: "_output_shapes"
    value {
      list {
        shape {
          dim {
            size: -1
          }
          dim {
            size: 1
          }
        }
      }
    }
  }
}
node {
  name: "adanet/iteration_0/subnetwork_t0_linear/head/losses/mean_squared_error/assert_broadcastable/weights"
  op: "Const"
  attr {
    key: "_output_shapes"
    value {
      list {
        shape {
        }
      }
    }
  }
  attr {
    key: "dtype"
    value {
      type: DT_FLOAT
    }
  }
  attr {
    key: "value"
    value {
      tensor {
        dtype: DT_FLOAT
        tensor_shape {
        }
        float_val: 1.0
      }
    }
  }
}
node {
  name: "adanet/iteration_0/subnetwork_t0_linear/head/losses/mean_squared_error/assert_broadcastable/weights/shape"
  op: "Const"
  attr {
    key: "_output_shapes"
    value {
      list {
        shape {
          dim {
          }
        }
      }
    }
  }
  attr {
    key: "dtype"
    value {
      type: DT_INT32
    }
  }
  attr {
    key: "value"
    value {
      tensor {
        dtype: DT_INT32
        tensor_shape {
          dim {
          }
        }
      }
    }
  }
}
node {
  name: "adanet/iteration_0/subnetwork_t0_linear/head/losses/mean_squared_error/assert_broadcastable/weights/rank"
  op: "Const"
  attr {
    key: "_output_shapes"
    value {
      list {
        shape {
        }
      }
    }
  }
  attr {
    key: "dtype"
    value {
      type: DT_INT32
    }
  }
  attr {
    key: "value"
    value {
      tensor {
        dtype: DT_INT32
        tensor_shape {
        }
        int_val: 0
      }
    }
  }
}
node {
  name: "adanet/iteration_0/subnetwork_t0_linear/head/losses/mean_squared_error/assert_broadcastable/values/shape"
  op: "Shape"
  input: "adanet/iteration_0/subnetwork_t0_linear/head/losses/mean_squared_error/SquaredDifference"
  attr {
    key: "T"
    value {
      type: DT_FLOAT
    }
  }
  attr {
    key: "_output_shapes"
    value {
      list {
        shape {
          dim {
            size: 2
          }
        }
      }
    }
  }
  attr {
    key: "out_type"
    value {
      type: DT_INT32
    }
  }
}
node {
  name: "adanet/iteration_0/subnetwork_t0_linear/head/losses/mean_squared_error/assert_broadcastable/values/rank"
  op: "Const"
  attr {
    key: "_output_shapes"
    value {
      list {
        shape {
        }
      }
    }
  }
  attr {
    key: "dtype"
    value {
      type: DT_INT32
    }
  }
  attr {
    key: "value"
    value {
      tensor {
        dtype: DT_INT32
        tensor_shape {
        }
        int_val: 2
      }
    }
  }
}
node {
  name: "adanet/iteration_0/subnetwork_t0_linear/head/losses/mean_squared_error/assert_broadcastable/static_scalar_check_success"
  op: "NoOp"
}
node {
  name: "adanet/iteration_0/subnetwork_t0_linear/head/losses/mean_squared_error/Cast/x"
  op: "Const"
  input: "^adanet/iteration_0/subnetwork_t0_linear/head/losses/mean_squared_error/assert_broadcastable/static_scalar_check_success"
  attr {
    key: "_output_shapes"
    value {
      list {
        shape {
        }
      }
    }
  }
  attr {
    key: "dtype"
    value {
      type: DT_FLOAT
    }
  }
  attr {
    key: "value"
    value {
      tensor {
        dtype: DT_FLOAT
        tensor_shape {
        }
        float_val: 1.0
      }
    }
  }
}
node {
  name: "adanet/iteration_0/subnetwork_t0_linear/head/losses/mean_squared_error/Mul"
  op: "Mul"
  input: "adanet/iteration_0/subnetwork_t0_linear/head/losses/mean_squared_error/SquaredDifference"
  input: "adanet/iteration_0/subnetwork_t0_linear/head/losses/mean_squared_error/Cast/x"
  attr {
    key: "T"
    value {
      type: DT_FLOAT
    }
  }
  attr {
    key: "_output_shapes"
    value {
      list {
        shape {
          dim {
            size: -1
          }
          dim {
            size: 1
          }
        }
      }
    }
  }
}
node {
  name: "adanet/iteration_0/subnetwork_t0_linear/head/losses/weighted_loss/Const"
  op: "Const"
  attr {
    key: "_output_shapes"
    value {
      list {
        shape {
        }
      }
    }
  }
  attr {
    key: "dtype"
    value {
      type: DT_FLOAT
    }
  }
  attr {
    key: "value"
    value {
      tensor {
        dtype: DT_FLOAT
        tensor_shape {
        }
        float_val: 1.0
      }
    }
  }
}
node {
  name: "adanet/iteration_0/subnetwork_t0_linear/head/losses/weighted_loss/Mul"
  op: "Mul"
  input: "adanet/iteration_0/subnetwork_t0_linear/head/losses/mean_squared_error/Mul"
  input: "adanet/iteration_0/subnetwork_t0_linear/head/losses/weighted_loss/Const"
  attr {
    key: "T"
    value {
      type: DT_FLOAT
    }
  }
  attr {
    key: "_output_shapes"
    value {
      list {
        shape {
          dim {
            size: -1
          }
          dim {
            size: 1
          }
        }
      }
    }
  }
}
node {
  name: "adanet/iteration_0/subnetwork_t0_linear/head/losses/weighted_loss/Const_1"
  op: "Const"
  attr {
    key: "_output_shapes"
    value {
      list {
        shape {
          dim {
            size: 2
          }
        }
      }
    }
  }
  attr {
    key: "dtype"
    value {
      type: DT_INT32
    }
  }
  attr {
    key: "value"
    value {
      tensor {
        dtype: DT_INT32
        tensor_shape {
          dim {
            size: 2
          }
        }
        tensor_content: "\000\000\000\000\001\000\000\000"
      }
    }
  }
}
node {
  name: "adanet/iteration_0/subnetwork_t0_linear/head/losses/weighted_loss/Sum"
  op: "Sum"
  input: "adanet/iteration_0/subnetwork_t0_linear/head/losses/weighted_loss/Mul"
  input: "adanet/iteration_0/subnetwork_t0_linear/head/losses/weighted_loss/Const_1"
  attr {
    key: "T"
    value {
      type: DT_FLOAT
    }
  }
  attr {
    key: "Tidx"
    value {
      type: DT_INT32
    }
  }
  attr {
    key: "_output_shapes"
    value {
      list {
        shape {
        }
      }
    }
  }
  attr {
    key: "keep_dims"
    value {
      b: false
    }
  }
}
node {
  name: "adanet/iteration_0/subnetwork_t0_linear/head/losses/weighted_loss/num_elements"
  op: "Size"
  input: "adanet/iteration_0/subnetwork_t0_linear/head/losses/weighted_loss/Mul"
  attr {
    key: "T"
    value {
      type: DT_FLOAT
    }
  }
  attr {
    key: "_output_shapes"
    value {
      list {
        shape {
        }
      }
    }
  }
  attr {
    key: "out_type"
    value {
      type: DT_INT32
    }
  }
}
node {
  name: "adanet/iteration_0/subnetwork_t0_linear/head/losses/weighted_loss/num_elements/Cast"
  op: "Cast"
  input: "adanet/iteration_0/subnetwork_t0_linear/head/losses/weighted_loss/num_elements"
  attr {
    key: "DstT"
    value {
      type: DT_FLOAT
    }
  }
  attr {
    key: "SrcT"
    value {
      type: DT_INT32
    }
  }
  attr {
    key: "Truncate"
    value {
      b: false
    }
  }
  attr {
    key: "_output_shapes"
    value {
      list {
        shape {
        }
      }
    }
  }
}
node {
  name: "adanet/iteration_0/subnetwork_t0_linear/head/losses/weighted_loss/Rank"
  op: "Const"
  attr {
    key: "_output_shapes"
    value {
      list {
        shape {
        }
      }
    }
  }
  attr {
    key: "dtype"
    value {
      type: DT_INT32
    }
  }
  attr {
    key: "value"
    value {
      tensor {
        dtype: DT_INT32
        tensor_shape {
        }
        int_val: 0
      }
    }
  }
}
node {
  name: "adanet/iteration_0/subnetwork_t0_linear/head/losses/weighted_loss/range/start"
  op: "Const"
  attr {
    key: "_output_shapes"
    value {
      list {
        shape {
        }
      }
    }
  }
  attr {
    key: "dtype"
    value {
      type: DT_INT32
    }
  }
  attr {
    key: "value"
    value {
      tensor {
        dtype: DT_INT32
        tensor_shape {
        }
        int_val: 0
      }
    }
  }
}
node {
  name: "adanet/iteration_0/subnetwork_t0_linear/head/losses/weighted_loss/range/delta"
  op: "Const"
  attr {
    key: "_output_shapes"
    value {
      list {
        shape {
        }
      }
    }
  }
  attr {
    key: "dtype"
    value {
      type: DT_INT32
    }
  }
  attr {
    key: "value"
    value {
      tensor {
        dtype: DT_INT32
        tensor_shape {
        }
        int_val: 1
      }
    }
  }
}
node {
  name: "adanet/iteration_0/subnetwork_t0_linear/head/losses/weighted_loss/range"
  op: "Range"
  input: "adanet/iteration_0/subnetwork_t0_linear/head/losses/weighted_loss/range/start"
  input: "adanet/iteration_0/subnetwork_t0_linear/head/losses/weighted_loss/Rank"
  input: "adanet/iteration_0/subnetwork_t0_linear/head/losses/weighted_loss/range/delta"
  attr {
    key: "Tidx"
    value {
      type: DT_INT32
    }
  }
  attr {
    key: "_output_shapes"
    value {
      list {
        shape {
          dim {
          }
        }
      }
    }
  }
}
node {
  name: "adanet/iteration_0/subnetwork_t0_linear/head/losses/weighted_loss/Sum_1"
  op: "Sum"
  input: "adanet/iteration_0/subnetwork_t0_linear/head/losses/weighted_loss/Sum"
  input: "adanet/iteration_0/subnetwork_t0_linear/head/losses/weighted_loss/range"
  attr {
    key: "T"
    value {
      type: DT_FLOAT
    }
  }
  attr {
    key: "Tidx"
    value {
      type: DT_INT32
    }
  }
  attr {
    key: "_output_shapes"
    value {
      list {
        shape {
        }
      }
    }
  }
  attr {
    key: "keep_dims"
    value {
      b: false
    }
  }
}
node {
  name: "adanet/iteration_0/subnetwork_t0_linear/head/losses/weighted_loss/value"
  op: "DivNoNan"
  input: "adanet/iteration_0/subnetwork_t0_linear/head/losses/weighted_loss/Sum_1"
  input: "adanet/iteration_0/subnetwork_t0_linear/head/losses/weighted_loss/num_elements/Cast"
  attr {
    key: "T"
    value {
      type: DT_FLOAT
    }
  }
  attr {
    key: "_output_shapes"
    value {
      list {
        shape {
        }
      }
    }
  }
}
node {
  name: "training/NoOp"
  op: "NoOp"
}
node {
  name: "loss/tags"
  op: "Const"
  attr {
    key: "_output_shapes"
    value {
      list {
        shape {
        }
      }
    }
  }
  attr {
    key: "dtype"
    value {
      type: DT_STRING
    }
  }
  attr {
    key: "value"
    value {
      tensor {
        dtype: DT_STRING
        tensor_shape {
        }
        string_val: "loss"
      }
    }
  }
}
node {
  name: "loss"
  op: "ScalarSummary"
  input: "loss/tags"
  input: "adanet/iteration_0/subnetwork_t0_linear/head/losses/weighted_loss/value"
  attr {
    key: "T"
    value {
      type: DT_FLOAT
    }
  }
  attr {
    key: "_output_shapes"
    value {
      list {
        shape {
        }
      }
    }
  }
}
node {
  name: "adanet/iteration_0/subnetwork_t0_linear/Reshape_2/shape"
  op: "Const"
  attr {
    key: "_output_shapes"
    value {
      list {
        shape {
          dim {
          }
        }
      }
    }
  }
  attr {
    key: "dtype"
    value {
      type: DT_FLOAT
    }
  }
  attr {
    key: "value"
    value {
      tensor {
        dtype: DT_FLOAT
        tensor_shape {
          dim {
          }
        }
      }
    }
  }
}
node {
  name: "adanet/iteration_0/subnetwork_t0_linear/Reshape_2/shape_1"
  op: "Const"
  attr {
    key: "_output_shapes"
    value {
      list {
        shape {
          dim {
          }
        }
      }
    }
  }
  attr {
    key: "dtype"
    value {
      type: DT_INT32
    }
  }
  attr {
    key: "value"
    value {
      tensor {
        dtype: DT_INT32
        tensor_shape {
          dim {
          }
        }
      }
    }
  }
}
node {
  name: "adanet/iteration_0/subnetwork_t0_linear/Reshape_2"
  op: "Reshape"
  input: "adanet/iteration_0/subnetwork_t0_linear/head/losses/weighted_loss/value"
  input: "adanet/iteration_0/subnetwork_t0_linear/Reshape_2/shape_1"
  attr {
    key: "T"
    value {
      type: DT_FLOAT
    }
  }
  attr {
    key: "Tshape"
    value {
      type: DT_INT32
    }
  }
  attr {
    key: "_output_shapes"
    value {
      list {
        shape {
        }
      }
    }
  }
}
node {
  name: "adanet/iteration_0/subnetwork_t0_linear/gradients/Shape"
  op: "Const"
  attr {
    key: "_output_shapes"
    value {
      list {
        shape {
          dim {
          }
        }
      }
    }
  }
  attr {
    key: "dtype"
    value {
      type: DT_INT32
    }
  }
  attr {
    key: "value"
    value {
      tensor {
        dtype: DT_INT32
        tensor_shape {
          dim {
          }
        }
      }
    }
  }
}
node {
  name: "adanet/iteration_0/subnetwork_t0_linear/gradients/grad_ys_0/Const"
  op: "Const"
  attr {
    key: "_output_shapes"
    value {
      list {
        shape {
        }
      }
    }
  }
  attr {
    key: "dtype"
    value {
      type: DT_FLOAT
    }
  }
  attr {
    key: "value"
    value {
      tensor {
        dtype: DT_FLOAT
        tensor_shape {
        }
        float_val: 1.0
      }
    }
  }
}
node {
  name: "adanet/iteration_0/subnetwork_t0_linear/gradients/grad_ys_0"
  op: "Fill"
  input: "adanet/iteration_0/subnetwork_t0_linear/gradients/Shape"
  input: "adanet/iteration_0/subnetwork_t0_linear/gradients/grad_ys_0/Const"
  attr {
    key: "T"
    value {
      type: DT_FLOAT
    }
  }
  attr {
    key: "_output_shapes"
    value {
      list {
        shape {
        }
      }
    }
  }
  attr {
    key: "index_type"
    value {
      type: DT_INT32
    }
  }
}
node {
  name: "adanet/iteration_0/subnetwork_t0_linear/gradients/adanet/iteration_0/subnetwork_t0_linear/head/losses/weighted_loss/value_grad/Shape"
  op: "Const"
  attr {
    key: "_output_shapes"
    value {
      list {
        shape {
          dim {
          }
        }
      }
    }
  }
  attr {
    key: "dtype"
    value {
      type: DT_INT32
    }
  }
  attr {
    key: "value"
    value {
      tensor {
        dtype: DT_INT32
        tensor_shape {
          dim {
          }
        }
      }
    }
  }
}
node {
  name: "adanet/iteration_0/subnetwork_t0_linear/gradients/adanet/iteration_0/subnetwork_t0_linear/head/losses/weighted_loss/value_grad/Shape_1"
  op: "Const"
  attr {
    key: "_output_shapes"
    value {
      list {
        shape {
          dim {
          }
        }
      }
    }
  }
  attr {
    key: "dtype"
    value {
      type: DT_INT32
    }
  }
  attr {
    key: "value"
    value {
      tensor {
        dtype: DT_INT32
        tensor_shape {
          dim {
          }
        }
      }
    }
  }
}
node {
  name: "adanet/iteration_0/subnetwork_t0_linear/gradients/adanet/iteration_0/subnetwork_t0_linear/head/losses/weighted_loss/value_grad/BroadcastGradientArgs"
  op: "BroadcastGradientArgs"
  input: "adanet/iteration_0/subnetwork_t0_linear/gradients/adanet/iteration_0/subnetwork_t0_linear/head/losses/weighted_loss/value_grad/Shape"
  input: "adanet/iteration_0/subnetwork_t0_linear/gradients/adanet/iteration_0/subnetwork_t0_linear/head/losses/weighted_loss/value_grad/Shape_1"
  attr {
    key: "T"
    value {
      type: DT_INT32
    }
  }
  attr {
    key: "_output_shapes"
    value {
      list {
        shape {
          dim {
            size: -1
          }
        }
        shape {
          dim {
            size: -1
          }
        }
      }
    }
  }
}
node {
  name: "adanet/iteration_0/subnetwork_t0_linear/gradients/adanet/iteration_0/subnetwork_t0_linear/head/losses/weighted_loss/value_grad/div_no_nan"
  op: "DivNoNan"
  input: "adanet/iteration_0/subnetwork_t0_linear/gradients/grad_ys_0"
  input: "adanet/iteration_0/subnetwork_t0_linear/head/losses/weighted_loss/num_elements/Cast"
  attr {
    key: "T"
    value {
      type: DT_FLOAT
    }
  }
  attr {
    key: "_output_shapes"
    value {
      list {
        shape {
        }
      }
    }
  }
}
node {
  name: "adanet/iteration_0/subnetwork_t0_linear/gradients/adanet/iteration_0/subnetwork_t0_linear/head/losses/weighted_loss/value_grad/Sum"
  op: "Sum"
  input: "adanet/iteration_0/subnetwork_t0_linear/gradients/adanet/iteration_0/subnetwork_t0_linear/head/losses/weighted_loss/value_grad/div_no_nan"
  input: "adanet/iteration_0/subnetwork_t0_linear/gradients/adanet/iteration_0/subnetwork_t0_linear/head/losses/weighted_loss/value_grad/BroadcastGradientArgs"
  attr {
    key: "T"
    value {
      type: DT_FLOAT
    }
  }
  attr {
    key: "Tidx"
    value {
      type: DT_INT32
    }
  }
  attr {
    key: "_output_shapes"
    value {
      list {
        shape {
        }
      }
    }
  }
  attr {
    key: "keep_dims"
    value {
      b: false
    }
  }
}
node {
  name: "adanet/iteration_0/subnetwork_t0_linear/gradients/adanet/iteration_0/subnetwork_t0_linear/head/losses/weighted_loss/value_grad/Reshape"
  op: "Reshape"
  input: "adanet/iteration_0/subnetwork_t0_linear/gradients/adanet/iteration_0/subnetwork_t0_linear/head/losses/weighted_loss/value_grad/Sum"
  input: "adanet/iteration_0/subnetwork_t0_linear/gradients/adanet/iteration_0/subnetwork_t0_linear/head/losses/weighted_loss/value_grad/Shape"
  attr {
    key: "T"
    value {
      type: DT_FLOAT
    }
  }
  attr {
    key: "Tshape"
    value {
      type: DT_INT32
    }
  }
  attr {
    key: "_output_shapes"
    value {
      list {
        shape {
        }
      }
    }
  }
}
node {
  name: "adanet/iteration_0/subnetwork_t0_linear/gradients/adanet/iteration_0/subnetwork_t0_linear/head/losses/weighted_loss/value_grad/Neg"
  op: "Neg"
  input: "adanet/iteration_0/subnetwork_t0_linear/head/losses/weighted_loss/Sum_1"
  attr {
    key: "T"
    value {
      type: DT_FLOAT
    }
  }
  attr {
    key: "_output_shapes"
    value {
      list {
        shape {
        }
      }
    }
  }
}
node {
  name: "adanet/iteration_0/subnetwork_t0_linear/gradients/adanet/iteration_0/subnetwork_t0_linear/head/losses/weighted_loss/value_grad/div_no_nan_1"
  op: "DivNoNan"
  input: "adanet/iteration_0/subnetwork_t0_linear/gradients/adanet/iteration_0/subnetwork_t0_linear/head/losses/weighted_loss/value_grad/Neg"
  input: "adanet/iteration_0/subnetwork_t0_linear/head/losses/weighted_loss/num_elements/Cast"
  attr {
    key: "T"
    value {
      type: DT_FLOAT
    }
  }
  attr {
    key: "_output_shapes"
    value {
      list {
        shape {
        }
      }
    }
  }
}
node {
  name: "adanet/iteration_0/subnetwork_t0_linear/gradients/adanet/iteration_0/subnetwork_t0_linear/head/losses/weighted_loss/value_grad/div_no_nan_2"
  op: "DivNoNan"
  input: "adanet/iteration_0/subnetwork_t0_linear/gradients/adanet/iteration_0/subnetwork_t0_linear/head/losses/weighted_loss/value_grad/div_no_nan_1"
  input: "adanet/iteration_0/subnetwork_t0_linear/head/losses/weighted_loss/num_elements/Cast"
  attr {
    key: "T"
    value {
      type: DT_FLOAT
    }
  }
  attr {
    key: "_output_shapes"
    value {
      list {
        shape {
        }
      }
    }
  }
}
node {
  name: "adanet/iteration_0/subnetwork_t0_linear/gradients/adanet/iteration_0/subnetwork_t0_linear/head/losses/weighted_loss/value_grad/mul"
  op: "Mul"
  input: "adanet/iteration_0/subnetwork_t0_linear/gradients/grad_ys_0"
  input: "adanet/iteration_0/subnetwork_t0_linear/gradients/adanet/iteration_0/subnetwork_t0_linear/head/losses/weighted_loss/value_grad/div_no_nan_2"
  attr {
    key: "T"
    value {
      type: DT_FLOAT
    }
  }
  attr {
    key: "_output_shapes"
    value {
      list {
        shape {
        }
      }
    }
  }
}
node {
  name: "adanet/iteration_0/subnetwork_t0_linear/gradients/adanet/iteration_0/subnetwork_t0_linear/head/losses/weighted_loss/value_grad/Sum_1"
  op: "Sum"
  input: "adanet/iteration_0/subnetwork_t0_linear/gradients/adanet/iteration_0/subnetwork_t0_linear/head/losses/weighted_loss/value_grad/mul"
  input: "adanet/iteration_0/subnetwork_t0_linear/gradients/adanet/iteration_0/subnetwork_t0_linear/head/losses/weighted_loss/value_grad/BroadcastGradientArgs:1"
  attr {
    key: "T"
    value {
      type: DT_FLOAT
    }
  }
  attr {
    key: "Tidx"
    value {
      type: DT_INT32
    }
  }
  attr {
    key: "_output_shapes"
    value {
      list {
        shape {
        }
      }
    }
  }
  attr {
    key: "keep_dims"
    value {
      b: false
    }
  }
}
node {
  name: "adanet/iteration_0/subnetwork_t0_linear/gradients/adanet/iteration_0/subnetwork_t0_linear/head/losses/weighted_loss/value_grad/Reshape_1"
  op: "Reshape"
  input: "adanet/iteration_0/subnetwork_t0_linear/gradients/adanet/iteration_0/subnetwork_t0_linear/head/losses/weighted_loss/value_grad/Sum_1"
  input: "adanet/iteration_0/subnetwork_t0_linear/gradients/adanet/iteration_0/subnetwork_t0_linear/head/losses/weighted_loss/value_grad/Shape_1"
  attr {
    key: "T"
    value {
      type: DT_FLOAT
    }
  }
  attr {
    key: "Tshape"
    value {
      type: DT_INT32
    }
  }
  attr {
    key: "_output_shapes"
    value {
      list {
        shape {
        }
      }
    }
  }
}
node {
  name: "adanet/iteration_0/subnetwork_t0_linear/gradients/adanet/iteration_0/subnetwork_t0_linear/head/losses/weighted_loss/value_grad/tuple/group_deps"
  op: "NoOp"
  input: "^adanet/iteration_0/subnetwork_t0_linear/gradients/adanet/iteration_0/subnetwork_t0_linear/head/losses/weighted_loss/value_grad/Reshape"
  input: "^adanet/iteration_0/subnetwork_t0_linear/gradients/adanet/iteration_0/subnetwork_t0_linear/head/losses/weighted_loss/value_grad/Reshape_1"
}
node {
  name: "adanet/iteration_0/subnetwork_t0_linear/gradients/adanet/iteration_0/subnetwork_t0_linear/head/losses/weighted_loss/value_grad/tuple/control_dependency"
  op: "Identity"
  input: "adanet/iteration_0/subnetwork_t0_linear/gradients/adanet/iteration_0/subnetwork_t0_linear/head/losses/weighted_loss/value_grad/Reshape"
  input: "^adanet/iteration_0/subnetwork_t0_linear/gradients/adanet/iteration_0/subnetwork_t0_linear/head/losses/weighted_loss/value_grad/tuple/group_deps"
  attr {
    key: "T"
    value {
      type: DT_FLOAT
    }
  }
  attr {
    key: "_class"
    value {
      list {
        s: "loc:@adanet/iteration_0/subnetwork_t0_linear/gradients/adanet/iteration_0/subnetwork_t0_linear/head/losses/weighted_loss/value_grad/Reshape"
      }
    }
  }
  attr {
    key: "_output_shapes"
    value {
      list {
        shape {
        }
      }
    }
  }
}
node {
  name: "adanet/iteration_0/subnetwork_t0_linear/gradients/adanet/iteration_0/subnetwork_t0_linear/head/losses/weighted_loss/value_grad/tuple/control_dependency_1"
  op: "Identity"
  input: "adanet/iteration_0/subnetwork_t0_linear/gradients/adanet/iteration_0/subnetwork_t0_linear/head/losses/weighted_loss/value_grad/Reshape_1"
  input: "^adanet/iteration_0/subnetwork_t0_linear/gradients/adanet/iteration_0/subnetwork_t0_linear/head/losses/weighted_loss/value_grad/tuple/group_deps"
  attr {
    key: "T"
    value {
      type: DT_FLOAT
    }
  }
  attr {
    key: "_class"
    value {
      list {
        s: "loc:@adanet/iteration_0/subnetwork_t0_linear/gradients/adanet/iteration_0/subnetwork_t0_linear/head/losses/weighted_loss/value_grad/Reshape_1"
      }
    }
  }
  attr {
    key: "_output_shapes"
    value {
      list {
        shape {
        }
      }
    }
  }
}
node {
  name: "adanet/iteration_0/subnetwork_t0_linear/gradients/adanet/iteration_0/subnetwork_t0_linear/head/losses/weighted_loss/Sum_1_grad/Reshape/shape"
  op: "Const"
  attr {
    key: "_output_shapes"
    value {
      list {
        shape {
          dim {
          }
        }
      }
    }
  }
  attr {
    key: "dtype"
    value {
      type: DT_FLOAT
    }
  }
  attr {
    key: "value"
    value {
      tensor {
        dtype: DT_FLOAT
        tensor_shape {
          dim {
          }
        }
      }
    }
  }
}
node {
  name: "adanet/iteration_0/subnetwork_t0_linear/gradients/adanet/iteration_0/subnetwork_t0_linear/head/losses/weighted_loss/Sum_1_grad/Reshape/shape_1"
  op: "Const"
  attr {
    key: "_output_shapes"
    value {
      list {
        shape {
          dim {
          }
        }
      }
    }
  }
  attr {
    key: "dtype"
    value {
      type: DT_INT32
    }
  }
  attr {
    key: "value"
    value {
      tensor {
        dtype: DT_INT32
        tensor_shape {
          dim {
          }
        }
      }
    }
  }
}
node {
  name: "adanet/iteration_0/subnetwork_t0_linear/gradients/adanet/iteration_0/subnetwork_t0_linear/head/losses/weighted_loss/Sum_1_grad/Reshape"
  op: "Reshape"
  input: "adanet/iteration_0/subnetwork_t0_linear/gradients/adanet/iteration_0/subnetwork_t0_linear/head/losses/weighted_loss/value_grad/tuple/control_dependency"
  input: "adanet/iteration_0/subnetwork_t0_linear/gradients/adanet/iteration_0/subnetwork_t0_linear/head/losses/weighted_loss/Sum_1_grad/Reshape/shape_1"
  attr {
    key: "T"
    value {
      type: DT_FLOAT
    }
  }
  attr {
    key: "Tshape"
    value {
      type: DT_INT32
    }
  }
  attr {
    key: "_output_shapes"
    value {
      list {
        shape {
        }
      }
    }
  }
}
node {
  name: "adanet/iteration_0/subnetwork_t0_linear/gradients/adanet/iteration_0/subnetwork_t0_linear/head/losses/weighted_loss/Sum_1_grad/Const"
  op: "Const"
  attr {
    key: "_output_shapes"
    value {
      list {
        shape {
          dim {
          }
        }
      }
    }
  }
  attr {
    key: "dtype"
    value {
      type: DT_INT32
    }
  }
  attr {
    key: "value"
    value {
      tensor {
        dtype: DT_INT32
        tensor_shape {
          dim {
          }
        }
      }
    }
  }
}
node {
  name: "adanet/iteration_0/subnetwork_t0_linear/gradients/adanet/iteration_0/subnetwork_t0_linear/head/losses/weighted_loss/Sum_1_grad/Tile"
  op: "Tile"
  input: "adanet/iteration_0/subnetwork_t0_linear/gradients/adanet/iteration_0/subnetwork_t0_linear/head/losses/weighted_loss/Sum_1_grad/Reshape"
  input: "adanet/iteration_0/subnetwork_t0_linear/gradients/adanet/iteration_0/subnetwork_t0_linear/head/losses/weighted_loss/Sum_1_grad/Const"
  attr {
    key: "T"
    value {
      type: DT_FLOAT
    }
  }
  attr {
    key: "Tmultiples"
    value {
      type: DT_INT32
    }
  }
  attr {
    key: "_output_shapes"
    value {
      list {
        shape {
        }
      }
    }
  }
}
node {
  name: "adanet/iteration_0/subnetwork_t0_linear/gradients/adanet/iteration_0/subnetwork_t0_linear/head/losses/weighted_loss/Sum_grad/Reshape/shape"
  op: "Const"
  attr {
    key: "_output_shapes"
    value {
      list {
        shape {
          dim {
            size: 2
          }
        }
      }
    }
  }
  attr {
    key: "dtype"
    value {
      type: DT_INT32
    }
  }
  attr {
    key: "value"
    value {
      tensor {
        dtype: DT_INT32
        tensor_shape {
          dim {
            size: 2
          }
        }
        tensor_content: "\001\000\000\000\001\000\000\000"
      }
    }
  }
}
node {
  name: "adanet/iteration_0/subnetwork_t0_linear/gradients/adanet/iteration_0/subnetwork_t0_linear/head/losses/weighted_loss/Sum_grad/Reshape"
  op: "Reshape"
  input: "adanet/iteration_0/subnetwork_t0_linear/gradients/adanet/iteration_0/subnetwork_t0_linear/head/losses/weighted_loss/Sum_1_grad/Tile"
  input: "adanet/iteration_0/subnetwork_t0_linear/gradients/adanet/iteration_0/subnetwork_t0_linear/head/losses/weighted_loss/Sum_grad/Reshape/shape"
  attr {
    key: "T"
    value {
      type: DT_FLOAT
    }
  }
  attr {
    key: "Tshape"
    value {
      type: DT_INT32
    }
  }
  attr {
    key: "_output_shapes"
    value {
      list {
        shape {
          dim {
            size: 1
          }
          dim {
            size: 1
          }
        }
      }
    }
  }
}
node {
  name: "adanet/iteration_0/subnetwork_t0_linear/gradients/adanet/iteration_0/subnetwork_t0_linear/head/losses/weighted_loss/Sum_grad/Shape"
  op: "Shape"
  input: "adanet/iteration_0/subnetwork_t0_linear/head/losses/weighted_loss/Mul"
  attr {
    key: "T"
    value {
      type: DT_FLOAT
    }
  }
  attr {
    key: "_output_shapes"
    value {
      list {
        shape {
          dim {
            size: 2
          }
        }
      }
    }
  }
  attr {
    key: "out_type"
    value {
      type: DT_INT32
    }
  }
}
node {
  name: "adanet/iteration_0/subnetwork_t0_linear/gradients/adanet/iteration_0/subnetwork_t0_linear/head/losses/weighted_loss/Sum_grad/Tile"
  op: "Tile"
  input: "adanet/iteration_0/subnetwork_t0_linear/gradients/adanet/iteration_0/subnetwork_t0_linear/head/losses/weighted_loss/Sum_grad/Reshape"
  input: "adanet/iteration_0/subnetwork_t0_linear/gradients/adanet/iteration_0/subnetwork_t0_linear/head/losses/weighted_loss/Sum_grad/Shape"
  attr {
    key: "T"
    value {
      type: DT_FLOAT
    }
  }
  attr {
    key: "Tmultiples"
    value {
      type: DT_INT32
    }
  }
  attr {
    key: "_output_shapes"
    value {
      list {
        shape {
          dim {
            size: -1
          }
          dim {
            size: 1
          }
        }
      }
    }
  }
}
node {
  name: "adanet/iteration_0/subnetwork_t0_linear/gradients/adanet/iteration_0/subnetwork_t0_linear/head/losses/weighted_loss/Mul_grad/Shape"
  op: "Shape"
  input: "adanet/iteration_0/subnetwork_t0_linear/head/losses/mean_squared_error/Mul"
  attr {
    key: "T"
    value {
      type: DT_FLOAT
    }
  }
  attr {
    key: "_output_shapes"
    value {
      list {
        shape {
          dim {
            size: 2
          }
        }
      }
    }
  }
  attr {
    key: "out_type"
    value {
      type: DT_INT32
    }
  }
}
node {
  name: "adanet/iteration_0/subnetwork_t0_linear/gradients/adanet/iteration_0/subnetwork_t0_linear/head/losses/weighted_loss/Mul_grad/Shape_1"
  op: "Shape"
  input: "adanet/iteration_0/subnetwork_t0_linear/head/losses/weighted_loss/Const"
  attr {
    key: "T"
    value {
      type: DT_FLOAT
    }
  }
  attr {
    key: "_output_shapes"
    value {
      list {
        shape {
          dim {
          }
        }
      }
    }
  }
  attr {
    key: "out_type"
    value {
      type: DT_INT32
    }
  }
}
node {
  name: "adanet/iteration_0/subnetwork_t0_linear/gradients/adanet/iteration_0/subnetwork_t0_linear/head/losses/weighted_loss/Mul_grad/BroadcastGradientArgs"
  op: "BroadcastGradientArgs"
  input: "adanet/iteration_0/subnetwork_t0_linear/gradients/adanet/iteration_0/subnetwork_t0_linear/head/losses/weighted_loss/Mul_grad/Shape"
  input: "adanet/iteration_0/subnetwork_t0_linear/gradients/adanet/iteration_0/subnetwork_t0_linear/head/losses/weighted_loss/Mul_grad/Shape_1"
  attr {
    key: "T"
    value {
      type: DT_INT32
    }
  }
  attr {
    key: "_output_shapes"
    value {
      list {
        shape {
          dim {
            size: -1
          }
        }
        shape {
          dim {
            size: -1
          }
        }
      }
    }
  }
}
node {
  name: "adanet/iteration_0/subnetwork_t0_linear/gradients/adanet/iteration_0/subnetwork_t0_linear/head/losses/weighted_loss/Mul_grad/Mul"
  op: "Mul"
  input: "adanet/iteration_0/subnetwork_t0_linear/gradients/adanet/iteration_0/subnetwork_t0_linear/head/losses/weighted_loss/Sum_grad/Tile"
  input: "adanet/iteration_0/subnetwork_t0_linear/head/losses/weighted_loss/Const"
  attr {
    key: "T"
    value {
      type: DT_FLOAT
    }
  }
  attr {
    key: "_output_shapes"
    value {
      list {
        shape {
          dim {
            size: -1
          }
          dim {
            size: 1
          }
        }
      }
    }
  }
}
node {
  name: "adanet/iteration_0/subnetwork_t0_linear/gradients/adanet/iteration_0/subnetwork_t0_linear/head/losses/weighted_loss/Mul_grad/Sum"
  op: "Sum"
  input: "adanet/iteration_0/subnetwork_t0_linear/gradients/adanet/iteration_0/subnetwork_t0_linear/head/losses/weighted_loss/Mul_grad/Mul"
  input: "adanet/iteration_0/subnetwork_t0_linear/gradients/adanet/iteration_0/subnetwork_t0_linear/head/losses/weighted_loss/Mul_grad/BroadcastGradientArgs"
  attr {
    key: "T"
    value {
      type: DT_FLOAT
    }
  }
  attr {
    key: "Tidx"
    value {
      type: DT_INT32
    }
  }
  attr {
    key: "_output_shapes"
    value {
      list {
        shape {
          unknown_rank: true
        }
      }
    }
  }
  attr {
    key: "keep_dims"
    value {
      b: false
    }
  }
}
node {
  name: "adanet/iteration_0/subnetwork_t0_linear/gradients/adanet/iteration_0/subnetwork_t0_linear/head/losses/weighted_loss/Mul_grad/Reshape"
  op: "Reshape"
  input: "adanet/iteration_0/subnetwork_t0_linear/gradients/adanet/iteration_0/subnetwork_t0_linear/head/losses/weighted_loss/Mul_grad/Sum"
  input: "adanet/iteration_0/subnetwork_t0_linear/gradients/adanet/iteration_0/subnetwork_t0_linear/head/losses/weighted_loss/Mul_grad/Shape"
  attr {
    key: "T"
    value {
      type: DT_FLOAT
    }
  }
  attr {
    key: "Tshape"
    value {
      type: DT_INT32
    }
  }
  attr {
    key: "_output_shapes"
    value {
      list {
        shape {
          dim {
            size: -1
          }
          dim {
            size: 1
          }
        }
      }
    }
  }
}
node {
  name: "adanet/iteration_0/subnetwork_t0_linear/gradients/adanet/iteration_0/subnetwork_t0_linear/head/losses/weighted_loss/Mul_grad/Mul_1"
  op: "Mul"
  input: "adanet/iteration_0/subnetwork_t0_linear/head/losses/mean_squared_error/Mul"
  input: "adanet/iteration_0/subnetwork_t0_linear/gradients/adanet/iteration_0/subnetwork_t0_linear/head/losses/weighted_loss/Sum_grad/Tile"
  attr {
    key: "T"
    value {
      type: DT_FLOAT
    }
  }
  attr {
    key: "_output_shapes"
    value {
      list {
        shape {
          dim {
            size: -1
          }
          dim {
            size: 1
          }
        }
      }
    }
  }
}
node {
  name: "adanet/iteration_0/subnetwork_t0_linear/gradients/adanet/iteration_0/subnetwork_t0_linear/head/losses/weighted_loss/Mul_grad/Sum_1"
  op: "Sum"
  input: "adanet/iteration_0/subnetwork_t0_linear/gradients/adanet/iteration_0/subnetwork_t0_linear/head/losses/weighted_loss/Mul_grad/Mul_1"
  input: "adanet/iteration_0/subnetwork_t0_linear/gradients/adanet/iteration_0/subnetwork_t0_linear/head/losses/weighted_loss/Mul_grad/BroadcastGradientArgs:1"
  attr {
    key: "T"
    value {
      type: DT_FLOAT
    }
  }
  attr {
    key: "Tidx"
    value {
      type: DT_INT32
    }
  }
  attr {
    key: "_output_shapes"
    value {
      list {
        shape {
          unknown_rank: true
        }
      }
    }
  }
  attr {
    key: "keep_dims"
    value {
      b: false
    }
  }
}
node {
  name: "adanet/iteration_0/subnetwork_t0_linear/gradients/adanet/iteration_0/subnetwork_t0_linear/head/losses/weighted_loss/Mul_grad/Reshape_1"
  op: "Reshape"
  input: "adanet/iteration_0/subnetwork_t0_linear/gradients/adanet/iteration_0/subnetwork_t0_linear/head/losses/weighted_loss/Mul_grad/Sum_1"
  input: "adanet/iteration_0/subnetwork_t0_linear/gradients/adanet/iteration_0/subnetwork_t0_linear/head/losses/weighted_loss/Mul_grad/Shape_1"
  attr {
    key: "T"
    value {
      type: DT_FLOAT
    }
  }
  attr {
    key: "Tshape"
    value {
      type: DT_INT32
    }
  }
  attr {
    key: "_output_shapes"
    value {
      list {
        shape {
        }
      }
    }
  }
}
node {
  name: "adanet/iteration_0/subnetwork_t0_linear/gradients/adanet/iteration_0/subnetwork_t0_linear/head/losses/weighted_loss/Mul_grad/tuple/group_deps"
  op: "NoOp"
  input: "^adanet/iteration_0/subnetwork_t0_linear/gradients/adanet/iteration_0/subnetwork_t0_linear/head/losses/weighted_loss/Mul_grad/Reshape"
  input: "^adanet/iteration_0/subnetwork_t0_linear/gradients/adanet/iteration_0/subnetwork_t0_linear/head/losses/weighted_loss/Mul_grad/Reshape_1"
}
node {
  name: "adanet/iteration_0/subnetwork_t0_linear/gradients/adanet/iteration_0/subnetwork_t0_linear/head/losses/weighted_loss/Mul_grad/tuple/control_dependency"
  op: "Identity"
  input: "adanet/iteration_0/subnetwork_t0_linear/gradients/adanet/iteration_0/subnetwork_t0_linear/head/losses/weighted_loss/Mul_grad/Reshape"
  input: "^adanet/iteration_0/subnetwork_t0_linear/gradients/adanet/iteration_0/subnetwork_t0_linear/head/losses/weighted_loss/Mul_grad/tuple/group_deps"
  attr {
    key: "T"
    value {
      type: DT_FLOAT
    }
  }
  attr {
    key: "_class"
    value {
      list {
        s: "loc:@adanet/iteration_0/subnetwork_t0_linear/gradients/adanet/iteration_0/subnetwork_t0_linear/head/losses/weighted_loss/Mul_grad/Reshape"
      }
    }
  }
  attr {
    key: "_output_shapes"
    value {
      list {
        shape {
          dim {
            size: -1
          }
          dim {
            size: 1
          }
        }
      }
    }
  }
}
node {
  name: "adanet/iteration_0/subnetwork_t0_linear/gradients/adanet/iteration_0/subnetwork_t0_linear/head/losses/weighted_loss/Mul_grad/tuple/control_dependency_1"
  op: "Identity"
  input: "adanet/iteration_0/subnetwork_t0_linear/gradients/adanet/iteration_0/subnetwork_t0_linear/head/losses/weighted_loss/Mul_grad/Reshape_1"
  input: "^adanet/iteration_0/subnetwork_t0_linear/gradients/adanet/iteration_0/subnetwork_t0_linear/head/losses/weighted_loss/Mul_grad/tuple/group_deps"
  attr {
    key: "T"
    value {
      type: DT_FLOAT
    }
  }
  attr {
    key: "_class"
    value {
      list {
        s: "loc:@adanet/iteration_0/subnetwork_t0_linear/gradients/adanet/iteration_0/subnetwork_t0_linear/head/losses/weighted_loss/Mul_grad/Reshape_1"
      }
    }
  }
  attr {
    key: "_output_shapes"
    value {
      list {
        shape {
        }
      }
    }
  }
}
node {
  name: "adanet/iteration_0/subnetwork_t0_linear/gradients/adanet/iteration_0/subnetwork_t0_linear/head/losses/mean_squared_error/Mul_grad/Shape"
  op: "Shape"
  input: "adanet/iteration_0/subnetwork_t0_linear/head/losses/mean_squared_error/SquaredDifference"
  attr {
    key: "T"
    value {
      type: DT_FLOAT
    }
  }
  attr {
    key: "_output_shapes"
    value {
      list {
        shape {
          dim {
            size: 2
          }
        }
      }
    }
  }
  attr {
    key: "out_type"
    value {
      type: DT_INT32
    }
  }
}
node {
  name: "adanet/iteration_0/subnetwork_t0_linear/gradients/adanet/iteration_0/subnetwork_t0_linear/head/losses/mean_squared_error/Mul_grad/Shape_1"
  op: "Shape"
  input: "adanet/iteration_0/subnetwork_t0_linear/head/losses/mean_squared_error/Cast/x"
  attr {
    key: "T"
    value {
      type: DT_FLOAT
    }
  }
  attr {
    key: "_output_shapes"
    value {
      list {
        shape {
          dim {
          }
        }
      }
    }
  }
  attr {
    key: "out_type"
    value {
      type: DT_INT32
    }
  }
}
node {
  name: "adanet/iteration_0/subnetwork_t0_linear/gradients/adanet/iteration_0/subnetwork_t0_linear/head/losses/mean_squared_error/Mul_grad/BroadcastGradientArgs"
  op: "BroadcastGradientArgs"
  input: "adanet/iteration_0/subnetwork_t0_linear/gradients/adanet/iteration_0/subnetwork_t0_linear/head/losses/mean_squared_error/Mul_grad/Shape"
  input: "adanet/iteration_0/subnetwork_t0_linear/gradients/adanet/iteration_0/subnetwork_t0_linear/head/losses/mean_squared_error/Mul_grad/Shape_1"
  attr {
    key: "T"
    value {
      type: DT_INT32
    }
  }
  attr {
    key: "_output_shapes"
    value {
      list {
        shape {
          dim {
            size: -1
          }
        }
        shape {
          dim {
            size: -1
          }
        }
      }
    }
  }
}
node {
  name: "adanet/iteration_0/subnetwork_t0_linear/gradients/adanet/iteration_0/subnetwork_t0_linear/head/losses/mean_squared_error/Mul_grad/Mul"
  op: "Mul"
  input: "adanet/iteration_0/subnetwork_t0_linear/gradients/adanet/iteration_0/subnetwork_t0_linear/head/losses/weighted_loss/Mul_grad/tuple/control_dependency"
  input: "adanet/iteration_0/subnetwork_t0_linear/head/losses/mean_squared_error/Cast/x"
  attr {
    key: "T"
    value {
      type: DT_FLOAT
    }
  }
  attr {
    key: "_output_shapes"
    value {
      list {
        shape {
          dim {
            size: -1
          }
          dim {
            size: 1
          }
        }
      }
    }
  }
}
node {
  name: "adanet/iteration_0/subnetwork_t0_linear/gradients/adanet/iteration_0/subnetwork_t0_linear/head/losses/mean_squared_error/Mul_grad/Sum"
  op: "Sum"
  input: "adanet/iteration_0/subnetwork_t0_linear/gradients/adanet/iteration_0/subnetwork_t0_linear/head/losses/mean_squared_error/Mul_grad/Mul"
  input: "adanet/iteration_0/subnetwork_t0_linear/gradients/adanet/iteration_0/subnetwork_t0_linear/head/losses/mean_squared_error/Mul_grad/BroadcastGradientArgs"
  attr {
    key: "T"
    value {
      type: DT_FLOAT
    }
  }
  attr {
    key: "Tidx"
    value {
      type: DT_INT32
    }
  }
  attr {
    key: "_output_shapes"
    value {
      list {
        shape {
          unknown_rank: true
        }
      }
    }
  }
  attr {
    key: "keep_dims"
    value {
      b: false
    }
  }
}
node {
  name: "adanet/iteration_0/subnetwork_t0_linear/gradients/adanet/iteration_0/subnetwork_t0_linear/head/losses/mean_squared_error/Mul_grad/Reshape"
  op: "Reshape"
  input: "adanet/iteration_0/subnetwork_t0_linear/gradients/adanet/iteration_0/subnetwork_t0_linear/head/losses/mean_squared_error/Mul_grad/Sum"
  input: "adanet/iteration_0/subnetwork_t0_linear/gradients/adanet/iteration_0/subnetwork_t0_linear/head/losses/mean_squared_error/Mul_grad/Shape"
  attr {
    key: "T"
    value {
      type: DT_FLOAT
    }
  }
  attr {
    key: "Tshape"
    value {
      type: DT_INT32
    }
  }
  attr {
    key: "_output_shapes"
    value {
      list {
        shape {
          dim {
            size: -1
          }
          dim {
            size: 1
          }
        }
      }
    }
  }
}
node {
  name: "adanet/iteration_0/subnetwork_t0_linear/gradients/adanet/iteration_0/subnetwork_t0_linear/head/losses/mean_squared_error/Mul_grad/Mul_1"
  op: "Mul"
  input: "adanet/iteration_0/subnetwork_t0_linear/head/losses/mean_squared_error/SquaredDifference"
  input: "adanet/iteration_0/subnetwork_t0_linear/gradients/adanet/iteration_0/subnetwork_t0_linear/head/losses/weighted_loss/Mul_grad/tuple/control_dependency"
  attr {
    key: "T"
    value {
      type: DT_FLOAT
    }
  }
  attr {
    key: "_output_shapes"
    value {
      list {
        shape {
          dim {
            size: -1
          }
          dim {
            size: 1
          }
        }
      }
    }
  }
}
node {
  name: "adanet/iteration_0/subnetwork_t0_linear/gradients/adanet/iteration_0/subnetwork_t0_linear/head/losses/mean_squared_error/Mul_grad/Sum_1"
  op: "Sum"
  input: "adanet/iteration_0/subnetwork_t0_linear/gradients/adanet/iteration_0/subnetwork_t0_linear/head/losses/mean_squared_error/Mul_grad/Mul_1"
  input: "adanet/iteration_0/subnetwork_t0_linear/gradients/adanet/iteration_0/subnetwork_t0_linear/head/losses/mean_squared_error/Mul_grad/BroadcastGradientArgs:1"
  attr {
    key: "T"
    value {
      type: DT_FLOAT
    }
  }
  attr {
    key: "Tidx"
    value {
      type: DT_INT32
    }
  }
  attr {
    key: "_output_shapes"
    value {
      list {
        shape {
          unknown_rank: true
        }
      }
    }
  }
  attr {
    key: "keep_dims"
    value {
      b: false
    }
  }
}
node {
  name: "adanet/iteration_0/subnetwork_t0_linear/gradients/adanet/iteration_0/subnetwork_t0_linear/head/losses/mean_squared_error/Mul_grad/Reshape_1"
  op: "Reshape"
  input: "adanet/iteration_0/subnetwork_t0_linear/gradients/adanet/iteration_0/subnetwork_t0_linear/head/losses/mean_squared_error/Mul_grad/Sum_1"
  input: "adanet/iteration_0/subnetwork_t0_linear/gradients/adanet/iteration_0/subnetwork_t0_linear/head/losses/mean_squared_error/Mul_grad/Shape_1"
  attr {
    key: "T"
    value {
      type: DT_FLOAT
    }
  }
  attr {
    key: "Tshape"
    value {
      type: DT_INT32
    }
  }
  attr {
    key: "_output_shapes"
    value {
      list {
        shape {
        }
      }
    }
  }
}
node {
  name: "adanet/iteration_0/subnetwork_t0_linear/gradients/adanet/iteration_0/subnetwork_t0_linear/head/losses/mean_squared_error/Mul_grad/tuple/group_deps"
  op: "NoOp"
  input: "^adanet/iteration_0/subnetwork_t0_linear/gradients/adanet/iteration_0/subnetwork_t0_linear/head/losses/mean_squared_error/Mul_grad/Reshape"
  input: "^adanet/iteration_0/subnetwork_t0_linear/gradients/adanet/iteration_0/subnetwork_t0_linear/head/losses/mean_squared_error/Mul_grad/Reshape_1"
}
node {
  name: "adanet/iteration_0/subnetwork_t0_linear/gradients/adanet/iteration_0/subnetwork_t0_linear/head/losses/mean_squared_error/Mul_grad/tuple/control_dependency"
  op: "Identity"
  input: "adanet/iteration_0/subnetwork_t0_linear/gradients/adanet/iteration_0/subnetwork_t0_linear/head/losses/mean_squared_error/Mul_grad/Reshape"
  input: "^adanet/iteration_0/subnetwork_t0_linear/gradients/adanet/iteration_0/subnetwork_t0_linear/head/losses/mean_squared_error/Mul_grad/tuple/group_deps"
  attr {
    key: "T"
    value {
      type: DT_FLOAT
    }
  }
  attr {
    key: "_class"
    value {
      list {
        s: "loc:@adanet/iteration_0/subnetwork_t0_linear/gradients/adanet/iteration_0/subnetwork_t0_linear/head/losses/mean_squared_error/Mul_grad/Reshape"
      }
    }
  }
  attr {
    key: "_output_shapes"
    value {
      list {
        shape {
          dim {
            size: -1
          }
          dim {
            size: 1
          }
        }
      }
    }
  }
}
node {
  name: "adanet/iteration_0/subnetwork_t0_linear/gradients/adanet/iteration_0/subnetwork_t0_linear/head/losses/mean_squared_error/Mul_grad/tuple/control_dependency_1"
  op: "Identity"
  input: "adanet/iteration_0/subnetwork_t0_linear/gradients/adanet/iteration_0/subnetwork_t0_linear/head/losses/mean_squared_error/Mul_grad/Reshape_1"
  input: "^adanet/iteration_0/subnetwork_t0_linear/gradients/adanet/iteration_0/subnetwork_t0_linear/head/losses/mean_squared_error/Mul_grad/tuple/group_deps"
  attr {
    key: "T"
    value {
      type: DT_FLOAT
    }
  }
  attr {
    key: "_class"
    value {
      list {
        s: "loc:@adanet/iteration_0/subnetwork_t0_linear/gradients/adanet/iteration_0/subnetwork_t0_linear/head/losses/mean_squared_error/Mul_grad/Reshape_1"
      }
    }
  }
  attr {
    key: "_output_shapes"
    value {
      list {
        shape {
        }
      }
    }
  }
}
node {
  name: "adanet/iteration_0/subnetwork_t0_linear/gradients/adanet/iteration_0/subnetwork_t0_linear/head/losses/mean_squared_error/SquaredDifference_grad/scalar"
  op: "Const"
  input: "^adanet/iteration_0/subnetwork_t0_linear/gradients/adanet/iteration_0/subnetwork_t0_linear/head/losses/mean_squared_error/Mul_grad/tuple/control_dependency"
  attr {
    key: "_output_shapes"
    value {
      list {
        shape {
        }
      }
    }
  }
  attr {
    key: "dtype"
    value {
      type: DT_FLOAT
    }
  }
  attr {
    key: "value"
    value {
      tensor {
        dtype: DT_FLOAT
        tensor_shape {
        }
        float_val: 2.0
      }
    }
  }
}
node {
  name: "adanet/iteration_0/subnetwork_t0_linear/gradients/adanet/iteration_0/subnetwork_t0_linear/head/losses/mean_squared_error/SquaredDifference_grad/Mul"
  op: "Mul"
  input: "adanet/iteration_0/subnetwork_t0_linear/gradients/adanet/iteration_0/subnetwork_t0_linear/head/losses/mean_squared_error/SquaredDifference_grad/scalar"
  input: "adanet/iteration_0/subnetwork_t0_linear/gradients/adanet/iteration_0/subnetwork_t0_linear/head/losses/mean_squared_error/Mul_grad/tuple/control_dependency"
  attr {
    key: "T"
    value {
      type: DT_FLOAT
    }
  }
  attr {
    key: "_output_shapes"
    value {
      list {
        shape {
          dim {
            size: -1
          }
          dim {
            size: 1
          }
        }
      }
    }
  }
}
node {
  name: "adanet/iteration_0/subnetwork_t0_linear/gradients/adanet/iteration_0/subnetwork_t0_linear/head/losses/mean_squared_error/SquaredDifference_grad/sub"
  op: "Sub"
  input: "adanet/iteration_0/subnetwork_t0_linear/dense/BiasAdd"
  input: "adanet/iteration_0/subnetwork_t0_linear/head/losses/labels"
  input: "^adanet/iteration_0/subnetwork_t0_linear/gradients/adanet/iteration_0/subnetwork_t0_linear/head/losses/mean_squared_error/Mul_grad/tuple/control_dependency"
  attr {
    key: "T"
    value {
      type: DT_FLOAT
    }
  }
  attr {
    key: "_output_shapes"
    value {
      list {
        shape {
          dim {
            size: -1
          }
          dim {
            size: 1
          }
        }
      }
    }
  }
}
node {
  name: "adanet/iteration_0/subnetwork_t0_linear/gradients/adanet/iteration_0/subnetwork_t0_linear/head/losses/mean_squared_error/SquaredDifference_grad/mul_1"
  op: "Mul"
  input: "adanet/iteration_0/subnetwork_t0_linear/gradients/adanet/iteration_0/subnetwork_t0_linear/head/losses/mean_squared_error/SquaredDifference_grad/Mul"
  input: "adanet/iteration_0/subnetwork_t0_linear/gradients/adanet/iteration_0/subnetwork_t0_linear/head/losses/mean_squared_error/SquaredDifference_grad/sub"
  attr {
    key: "T"
    value {
      type: DT_FLOAT
    }
  }
  attr {
    key: "_output_shapes"
    value {
      list {
        shape {
          dim {
            size: -1
          }
          dim {
            size: 1
          }
        }
      }
    }
  }
}
node {
  name: "adanet/iteration_0/subnetwork_t0_linear/gradients/adanet/iteration_0/subnetwork_t0_linear/head/losses/mean_squared_error/SquaredDifference_grad/Shape"
  op: "Shape"
  input: "adanet/iteration_0/subnetwork_t0_linear/dense/BiasAdd"
  attr {
    key: "T"
    value {
      type: DT_FLOAT
    }
  }
  attr {
    key: "_output_shapes"
    value {
      list {
        shape {
          dim {
            size: 2
          }
        }
      }
    }
  }
  attr {
    key: "out_type"
    value {
      type: DT_INT32
    }
  }
}
node {
  name: "adanet/iteration_0/subnetwork_t0_linear/gradients/adanet/iteration_0/subnetwork_t0_linear/head/losses/mean_squared_error/SquaredDifference_grad/Shape_1"
  op: "Shape"
  input: "adanet/iteration_0/subnetwork_t0_linear/head/losses/labels"
  attr {
    key: "T"
    value {
      type: DT_FLOAT
    }
  }
  attr {
    key: "_output_shapes"
    value {
      list {
        shape {
          dim {
            size: 2
          }
        }
      }
    }
  }
  attr {
    key: "out_type"
    value {
      type: DT_INT32
    }
  }
}
node {
  name: "adanet/iteration_0/subnetwork_t0_linear/gradients/adanet/iteration_0/subnetwork_t0_linear/head/losses/mean_squared_error/SquaredDifference_grad/BroadcastGradientArgs"
  op: "BroadcastGradientArgs"
  input: "adanet/iteration_0/subnetwork_t0_linear/gradients/adanet/iteration_0/subnetwork_t0_linear/head/losses/mean_squared_error/SquaredDifference_grad/Shape"
  input: "adanet/iteration_0/subnetwork_t0_linear/gradients/adanet/iteration_0/subnetwork_t0_linear/head/losses/mean_squared_error/SquaredDifference_grad/Shape_1"
  attr {
    key: "T"
    value {
      type: DT_INT32
    }
  }
  attr {
    key: "_output_shapes"
    value {
      list {
        shape {
          dim {
            size: -1
          }
        }
        shape {
          dim {
            size: -1
          }
        }
      }
    }
  }
}
node {
  name: "adanet/iteration_0/subnetwork_t0_linear/gradients/adanet/iteration_0/subnetwork_t0_linear/head/losses/mean_squared_error/SquaredDifference_grad/Sum"
  op: "Sum"
  input: "adanet/iteration_0/subnetwork_t0_linear/gradients/adanet/iteration_0/subnetwork_t0_linear/head/losses/mean_squared_error/SquaredDifference_grad/mul_1"
  input: "adanet/iteration_0/subnetwork_t0_linear/gradients/adanet/iteration_0/subnetwork_t0_linear/head/losses/mean_squared_error/SquaredDifference_grad/BroadcastGradientArgs"
  attr {
    key: "T"
    value {
      type: DT_FLOAT
    }
  }
  attr {
    key: "Tidx"
    value {
      type: DT_INT32
    }
  }
  attr {
    key: "_output_shapes"
    value {
      list {
        shape {
          unknown_rank: true
        }
      }
    }
  }
  attr {
    key: "keep_dims"
    value {
      b: false
    }
  }
}
node {
  name: "adanet/iteration_0/subnetwork_t0_linear/gradients/adanet/iteration_0/subnetwork_t0_linear/head/losses/mean_squared_error/SquaredDifference_grad/Reshape"
  op: "Reshape"
  input: "adanet/iteration_0/subnetwork_t0_linear/gradients/adanet/iteration_0/subnetwork_t0_linear/head/losses/mean_squared_error/SquaredDifference_grad/Sum"
  input: "adanet/iteration_0/subnetwork_t0_linear/gradients/adanet/iteration_0/subnetwork_t0_linear/head/losses/mean_squared_error/SquaredDifference_grad/Shape"
  attr {
    key: "T"
    value {
      type: DT_FLOAT
    }
  }
  attr {
    key: "Tshape"
    value {
      type: DT_INT32
    }
  }
  attr {
    key: "_output_shapes"
    value {
      list {
        shape {
          dim {
            size: -1
          }
          dim {
            size: 1
          }
        }
      }
    }
  }
}
node {
  name: "adanet/iteration_0/subnetwork_t0_linear/gradients/adanet/iteration_0/subnetwork_t0_linear/head/losses/mean_squared_error/SquaredDifference_grad/Sum_1"
  op: "Sum"
  input: "adanet/iteration_0/subnetwork_t0_linear/gradients/adanet/iteration_0/subnetwork_t0_linear/head/losses/mean_squared_error/SquaredDifference_grad/mul_1"
  input: "adanet/iteration_0/subnetwork_t0_linear/gradients/adanet/iteration_0/subnetwork_t0_linear/head/losses/mean_squared_error/SquaredDifference_grad/BroadcastGradientArgs:1"
  attr {
    key: "T"
    value {
      type: DT_FLOAT
    }
  }
  attr {
    key: "Tidx"
    value {
      type: DT_INT32
    }
  }
  attr {
    key: "_output_shapes"
    value {
      list {
        shape {
          unknown_rank: true
        }
      }
    }
  }
  attr {
    key: "keep_dims"
    value {
      b: false
    }
  }
}
node {
  name: "adanet/iteration_0/subnetwork_t0_linear/gradients/adanet/iteration_0/subnetwork_t0_linear/head/losses/mean_squared_error/SquaredDifference_grad/Reshape_1"
  op: "Reshape"
  input: "adanet/iteration_0/subnetwork_t0_linear/gradients/adanet/iteration_0/subnetwork_t0_linear/head/losses/mean_squared_error/SquaredDifference_grad/Sum_1"
  input: "adanet/iteration_0/subnetwork_t0_linear/gradients/adanet/iteration_0/subnetwork_t0_linear/head/losses/mean_squared_error/SquaredDifference_grad/Shape_1"
  attr {
    key: "T"
    value {
      type: DT_FLOAT
    }
  }
  attr {
    key: "Tshape"
    value {
      type: DT_INT32
    }
  }
  attr {
    key: "_output_shapes"
    value {
      list {
        shape {
          dim {
            size: -1
          }
          dim {
            size: 1
          }
        }
      }
    }
  }
}
node {
  name: "adanet/iteration_0/subnetwork_t0_linear/gradients/adanet/iteration_0/subnetwork_t0_linear/head/losses/mean_squared_error/SquaredDifference_grad/Neg"
  op: "Neg"
  input: "adanet/iteration_0/subnetwork_t0_linear/gradients/adanet/iteration_0/subnetwork_t0_linear/head/losses/mean_squared_error/SquaredDifference_grad/Reshape_1"
  attr {
    key: "T"
    value {
      type: DT_FLOAT
    }
  }
  attr {
    key: "_output_shapes"
    value {
      list {
        shape {
          dim {
            size: -1
          }
          dim {
            size: 1
          }
        }
      }
    }
  }
}
node {
  name: "adanet/iteration_0/subnetwork_t0_linear/gradients/adanet/iteration_0/subnetwork_t0_linear/head/losses/mean_squared_error/SquaredDifference_grad/tuple/group_deps"
  op: "NoOp"
  input: "^adanet/iteration_0/subnetwork_t0_linear/gradients/adanet/iteration_0/subnetwork_t0_linear/head/losses/mean_squared_error/SquaredDifference_grad/Neg"
  input: "^adanet/iteration_0/subnetwork_t0_linear/gradients/adanet/iteration_0/subnetwork_t0_linear/head/losses/mean_squared_error/SquaredDifference_grad/Reshape"
}
node {
  name: "adanet/iteration_0/subnetwork_t0_linear/gradients/adanet/iteration_0/subnetwork_t0_linear/head/losses/mean_squared_error/SquaredDifference_grad/tuple/control_dependency"
  op: "Identity"
  input: "adanet/iteration_0/subnetwork_t0_linear/gradients/adanet/iteration_0/subnetwork_t0_linear/head/losses/mean_squared_error/SquaredDifference_grad/Reshape"
  input: "^adanet/iteration_0/subnetwork_t0_linear/gradients/adanet/iteration_0/subnetwork_t0_linear/head/losses/mean_squared_error/SquaredDifference_grad/tuple/group_deps"
  attr {
    key: "T"
    value {
      type: DT_FLOAT
    }
  }
  attr {
    key: "_class"
    value {
      list {
        s: "loc:@adanet/iteration_0/subnetwork_t0_linear/gradients/adanet/iteration_0/subnetwork_t0_linear/head/losses/mean_squared_error/SquaredDifference_grad/Reshape"
      }
    }
  }
  attr {
    key: "_output_shapes"
    value {
      list {
        shape {
          dim {
            size: -1
          }
          dim {
            size: 1
          }
        }
      }
    }
  }
}
node {
  name: "adanet/iteration_0/subnetwork_t0_linear/gradients/adanet/iteration_0/subnetwork_t0_linear/head/losses/mean_squared_error/SquaredDifference_grad/tuple/control_dependency_1"
  op: "Identity"
  input: "adanet/iteration_0/subnetwork_t0_linear/gradients/adanet/iteration_0/subnetwork_t0_linear/head/losses/mean_squared_error/SquaredDifference_grad/Neg"
  input: "^adanet/iteration_0/subnetwork_t0_linear/gradients/adanet/iteration_0/subnetwork_t0_linear/head/losses/mean_squared_error/SquaredDifference_grad/tuple/group_deps"
  attr {
    key: "T"
    value {
      type: DT_FLOAT
    }
  }
  attr {
    key: "_class"
    value {
      list {
        s: "loc:@adanet/iteration_0/subnetwork_t0_linear/gradients/adanet/iteration_0/subnetwork_t0_linear/head/losses/mean_squared_error/SquaredDifference_grad/Neg"
      }
    }
  }
  attr {
    key: "_output_shapes"
    value {
      list {
        shape {
          dim {
            size: -1
          }
          dim {
            size: 1
          }
        }
      }
    }
  }
}
node {
  name: "adanet/iteration_0/subnetwork_t0_linear/gradients/adanet/iteration_0/subnetwork_t0_linear/dense/BiasAdd_grad/BiasAddGrad"
  op: "BiasAddGrad"
  input: "adanet/iteration_0/subnetwork_t0_linear/gradients/adanet/iteration_0/subnetwork_t0_linear/head/losses/mean_squared_error/SquaredDifference_grad/tuple/control_dependency"
  attr {
    key: "T"
    value {
      type: DT_FLOAT
    }
  }
  attr {
    key: "_output_shapes"
    value {
      list {
        shape {
          dim {
            size: 1
          }
        }
      }
    }
  }
  attr {
    key: "data_format"
    value {
      s: "NHWC"
    }
  }
}
node {
  name: "adanet/iteration_0/subnetwork_t0_linear/gradients/adanet/iteration_0/subnetwork_t0_linear/dense/BiasAdd_grad/tuple/group_deps"
  op: "NoOp"
  input: "^adanet/iteration_0/subnetwork_t0_linear/gradients/adanet/iteration_0/subnetwork_t0_linear/dense/BiasAdd_grad/BiasAddGrad"
  input: "^adanet/iteration_0/subnetwork_t0_linear/gradients/adanet/iteration_0/subnetwork_t0_linear/head/losses/mean_squared_error/SquaredDifference_grad/tuple/control_dependency"
}
node {
  name: "adanet/iteration_0/subnetwork_t0_linear/gradients/adanet/iteration_0/subnetwork_t0_linear/dense/BiasAdd_grad/tuple/control_dependency"
  op: "Identity"
  input: "adanet/iteration_0/subnetwork_t0_linear/gradients/adanet/iteration_0/subnetwork_t0_linear/head/losses/mean_squared_error/SquaredDifference_grad/tuple/control_dependency"
  input: "^adanet/iteration_0/subnetwork_t0_linear/gradients/adanet/iteration_0/subnetwork_t0_linear/dense/BiasAdd_grad/tuple/group_deps"
  attr {
    key: "T"
    value {
      type: DT_FLOAT
    }
  }
  attr {
    key: "_class"
    value {
      list {
        s: "loc:@adanet/iteration_0/subnetwork_t0_linear/gradients/adanet/iteration_0/subnetwork_t0_linear/head/losses/mean_squared_error/SquaredDifference_grad/Reshape"
      }
    }
  }
  attr {
    key: "_output_shapes"
    value {
      list {
        shape {
          dim {
            size: -1
          }
          dim {
            size: 1
          }
        }
      }
    }
  }
}
node {
  name: "adanet/iteration_0/subnetwork_t0_linear/gradients/adanet/iteration_0/subnetwork_t0_linear/dense/BiasAdd_grad/tuple/control_dependency_1"
  op: "Identity"
  input: "adanet/iteration_0/subnetwork_t0_linear/gradients/adanet/iteration_0/subnetwork_t0_linear/dense/BiasAdd_grad/BiasAddGrad"
  input: "^adanet/iteration_0/subnetwork_t0_linear/gradients/adanet/iteration_0/subnetwork_t0_linear/dense/BiasAdd_grad/tuple/group_deps"
  attr {
    key: "T"
    value {
      type: DT_FLOAT
    }
  }
  attr {
    key: "_class"
    value {
      list {
        s: "loc:@adanet/iteration_0/subnetwork_t0_linear/gradients/adanet/iteration_0/subnetwork_t0_linear/dense/BiasAdd_grad/BiasAddGrad"
      }
    }
  }
  attr {
    key: "_output_shapes"
    value {
      list {
        shape {
          dim {
            size: 1
          }
        }
      }
    }
  }
}
node {
  name: "adanet/iteration_0/subnetwork_t0_linear/gradients/adanet/iteration_0/subnetwork_t0_linear/dense/MatMul_grad/MatMul"
  op: "MatMul"
  input: "adanet/iteration_0/subnetwork_t0_linear/gradients/adanet/iteration_0/subnetwork_t0_linear/dense/BiasAdd_grad/tuple/control_dependency"
  input: "adanet/iteration_0/subnetwork_t0_linear/dense/MatMul/ReadVariableOp"
  attr {
    key: "T"
    value {
      type: DT_FLOAT
    }
  }
  attr {
    key: "_output_shapes"
    value {
      list {
        shape {
          dim {
            size: -1
          }
          dim {
            size: 20
          }
        }
      }
    }
  }
  attr {
    key: "transpose_a"
    value {
      b: false
    }
  }
  attr {
    key: "transpose_b"
    value {
      b: true
    }
  }
}
node {
  name: "adanet/iteration_0/subnetwork_t0_linear/gradients/adanet/iteration_0/subnetwork_t0_linear/dense/MatMul_grad/MatMul_1"
  op: "MatMul"
  input: "adanet/iteration_0/subnetwork_t0_linear/nan_masking_layer/Select"
  input: "adanet/iteration_0/subnetwork_t0_linear/gradients/adanet/iteration_0/subnetwork_t0_linear/dense/BiasAdd_grad/tuple/control_dependency"
  attr {
    key: "T"
    value {
      type: DT_FLOAT
    }
  }
  attr {
    key: "_output_shapes"
    value {
      list {
        shape {
          dim {
            size: 20
          }
          dim {
            size: 1
          }
        }
      }
    }
  }
  attr {
    key: "transpose_a"
    value {
      b: true
    }
  }
  attr {
    key: "transpose_b"
    value {
      b: false
    }
  }
}
node {
  name: "adanet/iteration_0/subnetwork_t0_linear/gradients/adanet/iteration_0/subnetwork_t0_linear/dense/MatMul_grad/tuple/group_deps"
  op: "NoOp"
  input: "^adanet/iteration_0/subnetwork_t0_linear/gradients/adanet/iteration_0/subnetwork_t0_linear/dense/MatMul_grad/MatMul"
  input: "^adanet/iteration_0/subnetwork_t0_linear/gradients/adanet/iteration_0/subnetwork_t0_linear/dense/MatMul_grad/MatMul_1"
}
node {
  name: "adanet/iteration_0/subnetwork_t0_linear/gradients/adanet/iteration_0/subnetwork_t0_linear/dense/MatMul_grad/tuple/control_dependency"
  op: "Identity"
  input: "adanet/iteration_0/subnetwork_t0_linear/gradients/adanet/iteration_0/subnetwork_t0_linear/dense/MatMul_grad/MatMul"
  input: "^adanet/iteration_0/subnetwork_t0_linear/gradients/adanet/iteration_0/subnetwork_t0_linear/dense/MatMul_grad/tuple/group_deps"
  attr {
    key: "T"
    value {
      type: DT_FLOAT
    }
  }
  attr {
    key: "_class"
    value {
      list {
        s: "loc:@adanet/iteration_0/subnetwork_t0_linear/gradients/adanet/iteration_0/subnetwork_t0_linear/dense/MatMul_grad/MatMul"
      }
    }
  }
  attr {
    key: "_output_shapes"
    value {
      list {
        shape {
          dim {
            size: -1
          }
          dim {
            size: 20
          }
        }
      }
    }
  }
}
node {
  name: "adanet/iteration_0/subnetwork_t0_linear/gradients/adanet/iteration_0/subnetwork_t0_linear/dense/MatMul_grad/tuple/control_dependency_1"
  op: "Identity"
  input: "adanet/iteration_0/subnetwork_t0_linear/gradients/adanet/iteration_0/subnetwork_t0_linear/dense/MatMul_grad/MatMul_1"
  input: "^adanet/iteration_0/subnetwork_t0_linear/gradients/adanet/iteration_0/subnetwork_t0_linear/dense/MatMul_grad/tuple/group_deps"
  attr {
    key: "T"
    value {
      type: DT_FLOAT
    }
  }
  attr {
    key: "_class"
    value {
      list {
        s: "loc:@adanet/iteration_0/subnetwork_t0_linear/gradients/adanet/iteration_0/subnetwork_t0_linear/dense/MatMul_grad/MatMul_1"
      }
    }
  }
  attr {
    key: "_output_shapes"
    value {
      list {
        shape {
          dim {
            size: 20
          }
          dim {
            size: 1
          }
        }
      }
    }
  }
}
node {
  name: "adanet/iteration_0/subnetwork_t0_linear/adanet/iteration_0/subnetwork_t0_linear/dense/kernel/RMSProp/Initializer/ones"
  op: "Const"
  attr {
    key: "_class"
    value {
      list {
        s: "loc:@adanet/iteration_0/subnetwork_t0_linear/dense/kernel"
      }
    }
  }
  attr {
    key: "_output_shapes"
    value {
      list {
        shape {
          dim {
            size: 20
          }
          dim {
            size: 1
          }
        }
      }
    }
  }
  attr {
    key: "dtype"
    value {
      type: DT_FLOAT
    }
  }
  attr {
    key: "value"
    value {
      tensor {
        dtype: DT_FLOAT
        tensor_shape {
          dim {
            size: 20
          }
          dim {
            size: 1
          }
        }
        float_val: 1.0
      }
    }
  }
}
node {
  name: "adanet/iteration_0/subnetwork_t0_linear/adanet/iteration_0/subnetwork_t0_linear/dense/kernel/RMSProp"
  op: "VarHandleOp"
  attr {
    key: "_class"
    value {
      list {
        s: "loc:@adanet/iteration_0/subnetwork_t0_linear/dense/kernel"
      }
    }
  }
  attr {
    key: "_output_shapes"
    value {
      list {
        shape {
        }
      }
    }
  }
  attr {
    key: "allowed_devices"
    value {
      list {
      }
    }
  }
  attr {
    key: "container"
    value {
      s: ""
    }
  }
  attr {
    key: "dtype"
    value {
      type: DT_FLOAT
    }
  }
  attr {
    key: "shape"
    value {
      shape {
        dim {
          size: 20
        }
        dim {
          size: 1
        }
      }
    }
  }
  attr {
    key: "shared_name"
    value {
      s: "adanet/iteration_0/subnetwork_t0_linear/adanet/iteration_0/subnetwork_t0_linear/dense/kernel/RMSProp"
    }
  }
}
node {
  name: "adanet/iteration_0/subnetwork_t0_linear/adanet/iteration_0/subnetwork_t0_linear/dense/kernel/RMSProp/IsInitialized/VarIsInitializedOp"
  op: "VarIsInitializedOp"
  input: "adanet/iteration_0/subnetwork_t0_linear/adanet/iteration_0/subnetwork_t0_linear/dense/kernel/RMSProp"
  attr {
    key: "_class"
    value {
      list {
        s: "loc:@adanet/iteration_0/subnetwork_t0_linear/dense/kernel"
      }
    }
  }
  attr {
    key: "_output_shapes"
    value {
      list {
        shape {
        }
      }
    }
  }
}
node {
  name: "adanet/iteration_0/subnetwork_t0_linear/adanet/iteration_0/subnetwork_t0_linear/dense/kernel/RMSProp/Assign"
  op: "AssignVariableOp"
  input: "adanet/iteration_0/subnetwork_t0_linear/adanet/iteration_0/subnetwork_t0_linear/dense/kernel/RMSProp"
  input: "adanet/iteration_0/subnetwork_t0_linear/adanet/iteration_0/subnetwork_t0_linear/dense/kernel/RMSProp/Initializer/ones"
  attr {
    key: "dtype"
    value {
      type: DT_FLOAT
    }
  }
  attr {
    key: "validate_shape"
    value {
      b: false
    }
  }
}
node {
  name: "adanet/iteration_0/subnetwork_t0_linear/adanet/iteration_0/subnetwork_t0_linear/dense/kernel/RMSProp/Read/ReadVariableOp"
  op: "ReadVariableOp"
  input: "adanet/iteration_0/subnetwork_t0_linear/adanet/iteration_0/subnetwork_t0_linear/dense/kernel/RMSProp"
  attr {
    key: "_class"
    value {
      list {
        s: "loc:@adanet/iteration_0/subnetwork_t0_linear/dense/kernel"
      }
    }
  }
  attr {
    key: "_output_shapes"
    value {
      list {
        shape {
          dim {
            size: 20
          }
          dim {
            size: 1
          }
        }
      }
    }
  }
  attr {
    key: "dtype"
    value {
      type: DT_FLOAT
    }
  }
}
node {
  name: "adanet/iteration_0/subnetwork_t0_linear/adanet/iteration_0/subnetwork_t0_linear/dense/kernel/RMSProp_1/Initializer/zeros"
  op: "Const"
  attr {
    key: "_class"
    value {
      list {
        s: "loc:@adanet/iteration_0/subnetwork_t0_linear/dense/kernel"
      }
    }
  }
  attr {
    key: "_output_shapes"
    value {
      list {
        shape {
          dim {
            size: 20
          }
          dim {
            size: 1
          }
        }
      }
    }
  }
  attr {
    key: "dtype"
    value {
      type: DT_FLOAT
    }
  }
  attr {
    key: "value"
    value {
      tensor {
        dtype: DT_FLOAT
        tensor_shape {
          dim {
            size: 20
          }
          dim {
            size: 1
          }
        }
        float_val: 0.0
      }
    }
  }
}
node {
  name: "adanet/iteration_0/subnetwork_t0_linear/adanet/iteration_0/subnetwork_t0_linear/dense/kernel/RMSProp_1"
  op: "VarHandleOp"
  attr {
    key: "_class"
    value {
      list {
        s: "loc:@adanet/iteration_0/subnetwork_t0_linear/dense/kernel"
      }
    }
  }
  attr {
    key: "_output_shapes"
    value {
      list {
        shape {
        }
      }
    }
  }
  attr {
    key: "allowed_devices"
    value {
      list {
      }
    }
  }
  attr {
    key: "container"
    value {
      s: ""
    }
  }
  attr {
    key: "dtype"
    value {
      type: DT_FLOAT
    }
  }
  attr {
    key: "shape"
    value {
      shape {
        dim {
          size: 20
        }
        dim {
          size: 1
        }
      }
    }
  }
  attr {
    key: "shared_name"
    value {
      s: "adanet/iteration_0/subnetwork_t0_linear/adanet/iteration_0/subnetwork_t0_linear/dense/kernel/RMSProp_1"
    }
  }
}
node {
  name: "adanet/iteration_0/subnetwork_t0_linear/adanet/iteration_0/subnetwork_t0_linear/dense/kernel/RMSProp_1/IsInitialized/VarIsInitializedOp"
  op: "VarIsInitializedOp"
  input: "adanet/iteration_0/subnetwork_t0_linear/adanet/iteration_0/subnetwork_t0_linear/dense/kernel/RMSProp_1"
  attr {
    key: "_class"
    value {
      list {
        s: "loc:@adanet/iteration_0/subnetwork_t0_linear/dense/kernel"
      }
    }
  }
  attr {
    key: "_output_shapes"
    value {
      list {
        shape {
        }
      }
    }
  }
}
node {
  name: "adanet/iteration_0/subnetwork_t0_linear/adanet/iteration_0/subnetwork_t0_linear/dense/kernel/RMSProp_1/Assign"
  op: "AssignVariableOp"
  input: "adanet/iteration_0/subnetwork_t0_linear/adanet/iteration_0/subnetwork_t0_linear/dense/kernel/RMSProp_1"
  input: "adanet/iteration_0/subnetwork_t0_linear/adanet/iteration_0/subnetwork_t0_linear/dense/kernel/RMSProp_1/Initializer/zeros"
  attr {
    key: "dtype"
    value {
      type: DT_FLOAT
    }
  }
  attr {
    key: "validate_shape"
    value {
      b: false
    }
  }
}
node {
  name: "adanet/iteration_0/subnetwork_t0_linear/adanet/iteration_0/subnetwork_t0_linear/dense/kernel/RMSProp_1/Read/ReadVariableOp"
  op: "ReadVariableOp"
  input: "adanet/iteration_0/subnetwork_t0_linear/adanet/iteration_0/subnetwork_t0_linear/dense/kernel/RMSProp_1"
  attr {
    key: "_class"
    value {
      list {
        s: "loc:@adanet/iteration_0/subnetwork_t0_linear/dense/kernel"
      }
    }
  }
  attr {
    key: "_output_shapes"
    value {
      list {
        shape {
          dim {
            size: 20
          }
          dim {
            size: 1
          }
        }
      }
    }
  }
  attr {
    key: "dtype"
    value {
      type: DT_FLOAT
    }
  }
}
node {
  name: "adanet/iteration_0/subnetwork_t0_linear/adanet/iteration_0/subnetwork_t0_linear/dense/bias/RMSProp/Initializer/ones"
  op: "Const"
  attr {
    key: "_class"
    value {
      list {
        s: "loc:@adanet/iteration_0/subnetwork_t0_linear/dense/bias"
      }
    }
  }
  attr {
    key: "_output_shapes"
    value {
      list {
        shape {
          dim {
            size: 1
          }
        }
      }
    }
  }
  attr {
    key: "dtype"
    value {
      type: DT_FLOAT
    }
  }
  attr {
    key: "value"
    value {
      tensor {
        dtype: DT_FLOAT
        tensor_shape {
          dim {
            size: 1
          }
        }
        float_val: 1.0
      }
    }
  }
}
node {
  name: "adanet/iteration_0/subnetwork_t0_linear/adanet/iteration_0/subnetwork_t0_linear/dense/bias/RMSProp"
  op: "VarHandleOp"
  attr {
    key: "_class"
    value {
      list {
        s: "loc:@adanet/iteration_0/subnetwork_t0_linear/dense/bias"
      }
    }
  }
  attr {
    key: "_output_shapes"
    value {
      list {
        shape {
        }
      }
    }
  }
  attr {
    key: "allowed_devices"
    value {
      list {
      }
    }
  }
  attr {
    key: "container"
    value {
      s: ""
    }
  }
  attr {
    key: "dtype"
    value {
      type: DT_FLOAT
    }
  }
  attr {
    key: "shape"
    value {
      shape {
        dim {
          size: 1
        }
      }
    }
  }
  attr {
    key: "shared_name"
    value {
      s: "adanet/iteration_0/subnetwork_t0_linear/adanet/iteration_0/subnetwork_t0_linear/dense/bias/RMSProp"
    }
  }
}
node {
  name: "adanet/iteration_0/subnetwork_t0_linear/adanet/iteration_0/subnetwork_t0_linear/dense/bias/RMSProp/IsInitialized/VarIsInitializedOp"
  op: "VarIsInitializedOp"
  input: "adanet/iteration_0/subnetwork_t0_linear/adanet/iteration_0/subnetwork_t0_linear/dense/bias/RMSProp"
  attr {
    key: "_class"
    value {
      list {
        s: "loc:@adanet/iteration_0/subnetwork_t0_linear/dense/bias"
      }
    }
  }
  attr {
    key: "_output_shapes"
    value {
      list {
        shape {
        }
      }
    }
  }
}
node {
  name: "adanet/iteration_0/subnetwork_t0_linear/adanet/iteration_0/subnetwork_t0_linear/dense/bias/RMSProp/Assign"
  op: "AssignVariableOp"
  input: "adanet/iteration_0/subnetwork_t0_linear/adanet/iteration_0/subnetwork_t0_linear/dense/bias/RMSProp"
  input: "adanet/iteration_0/subnetwork_t0_linear/adanet/iteration_0/subnetwork_t0_linear/dense/bias/RMSProp/Initializer/ones"
  attr {
    key: "dtype"
    value {
      type: DT_FLOAT
    }
  }
  attr {
    key: "validate_shape"
    value {
      b: false
    }
  }
}
node {
  name: "adanet/iteration_0/subnetwork_t0_linear/adanet/iteration_0/subnetwork_t0_linear/dense/bias/RMSProp/Read/ReadVariableOp"
  op: "ReadVariableOp"
  input: "adanet/iteration_0/subnetwork_t0_linear/adanet/iteration_0/subnetwork_t0_linear/dense/bias/RMSProp"
  attr {
    key: "_class"
    value {
      list {
        s: "loc:@adanet/iteration_0/subnetwork_t0_linear/dense/bias"
      }
    }
  }
  attr {
    key: "_output_shapes"
    value {
      list {
        shape {
          dim {
            size: 1
          }
        }
      }
    }
  }
  attr {
    key: "dtype"
    value {
      type: DT_FLOAT
    }
  }
}
node {
  name: "adanet/iteration_0/subnetwork_t0_linear/adanet/iteration_0/subnetwork_t0_linear/dense/bias/RMSProp_1/Initializer/zeros"
  op: "Const"
  attr {
    key: "_class"
    value {
      list {
        s: "loc:@adanet/iteration_0/subnetwork_t0_linear/dense/bias"
      }
    }
  }
  attr {
    key: "_output_shapes"
    value {
      list {
        shape {
          dim {
            size: 1
          }
        }
      }
    }
  }
  attr {
    key: "dtype"
    value {
      type: DT_FLOAT
    }
  }
  attr {
    key: "value"
    value {
      tensor {
        dtype: DT_FLOAT
        tensor_shape {
          dim {
            size: 1
          }
        }
        float_val: 0.0
      }
    }
  }
}
node {
  name: "adanet/iteration_0/subnetwork_t0_linear/adanet/iteration_0/subnetwork_t0_linear/dense/bias/RMSProp_1"
  op: "VarHandleOp"
  attr {
    key: "_class"
    value {
      list {
        s: "loc:@adanet/iteration_0/subnetwork_t0_linear/dense/bias"
      }
    }
  }
  attr {
    key: "_output_shapes"
    value {
      list {
        shape {
        }
      }
    }
  }
  attr {
    key: "allowed_devices"
    value {
      list {
      }
    }
  }
  attr {
    key: "container"
    value {
      s: ""
    }
  }
  attr {
    key: "dtype"
    value {
      type: DT_FLOAT
    }
  }
  attr {
    key: "shape"
    value {
      shape {
        dim {
          size: 1
        }
      }
    }
  }
  attr {
    key: "shared_name"
    value {
      s: "adanet/iteration_0/subnetwork_t0_linear/adanet/iteration_0/subnetwork_t0_linear/dense/bias/RMSProp_1"
    }
  }
}
node {
  name: "adanet/iteration_0/subnetwork_t0_linear/adanet/iteration_0/subnetwork_t0_linear/dense/bias/RMSProp_1/IsInitialized/VarIsInitializedOp"
  op: "VarIsInitializedOp"
  input: "adanet/iteration_0/subnetwork_t0_linear/adanet/iteration_0/subnetwork_t0_linear/dense/bias/RMSProp_1"
  attr {
    key: "_class"
    value {
      list {
        s: "loc:@adanet/iteration_0/subnetwork_t0_linear/dense/bias"
      }
    }
  }
  attr {
    key: "_output_shapes"
    value {
      list {
        shape {
        }
      }
    }
  }
}
node {
  name: "adanet/iteration_0/subnetwork_t0_linear/adanet/iteration_0/subnetwork_t0_linear/dense/bias/RMSProp_1/Assign"
  op: "AssignVariableOp"
  input: "adanet/iteration_0/subnetwork_t0_linear/adanet/iteration_0/subnetwork_t0_linear/dense/bias/RMSProp_1"
  input: "adanet/iteration_0/subnetwork_t0_linear/adanet/iteration_0/subnetwork_t0_linear/dense/bias/RMSProp_1/Initializer/zeros"
  attr {
    key: "dtype"
    value {
      type: DT_FLOAT
    }
  }
  attr {
    key: "validate_shape"
    value {
      b: false
    }
  }
}
node {
  name: "adanet/iteration_0/subnetwork_t0_linear/adanet/iteration_0/subnetwork_t0_linear/dense/bias/RMSProp_1/Read/ReadVariableOp"
  op: "ReadVariableOp"
  input: "adanet/iteration_0/subnetwork_t0_linear/adanet/iteration_0/subnetwork_t0_linear/dense/bias/RMSProp_1"
  attr {
    key: "_class"
    value {
      list {
        s: "loc:@adanet/iteration_0/subnetwork_t0_linear/dense/bias"
      }
    }
  }
  attr {
    key: "_output_shapes"
    value {
      list {
        shape {
          dim {
            size: 1
          }
        }
      }
    }
  }
  attr {
    key: "dtype"
    value {
      type: DT_FLOAT
    }
  }
}
node {
  name: "adanet/iteration_0/subnetwork_t0_linear/RMSProp/learning_rate"
  op: "Const"
  attr {
    key: "_output_shapes"
    value {
      list {
        shape {
        }
      }
    }
  }
  attr {
    key: "dtype"
    value {
      type: DT_FLOAT
    }
  }
  attr {
    key: "value"
    value {
      tensor {
        dtype: DT_FLOAT
        tensor_shape {
        }
        float_val: 0.0010000000474974513
      }
    }
  }
}
node {
  name: "adanet/iteration_0/subnetwork_t0_linear/RMSProp/decay"
  op: "Const"
  attr {
    key: "_output_shapes"
    value {
      list {
        shape {
        }
      }
    }
  }
  attr {
    key: "dtype"
    value {
      type: DT_FLOAT
    }
  }
  attr {
    key: "value"
    value {
      tensor {
        dtype: DT_FLOAT
        tensor_shape {
        }
        float_val: 0.8999999761581421
      }
    }
  }
}
node {
  name: "adanet/iteration_0/subnetwork_t0_linear/RMSProp/momentum"
  op: "Const"
  attr {
    key: "_output_shapes"
    value {
      list {
        shape {
        }
      }
    }
  }
  attr {
    key: "dtype"
    value {
      type: DT_FLOAT
    }
  }
  attr {
    key: "value"
    value {
      tensor {
        dtype: DT_FLOAT
        tensor_shape {
        }
        float_val: 0.0
      }
    }
  }
}
node {
  name: "adanet/iteration_0/subnetwork_t0_linear/RMSProp/epsilon"
  op: "Const"
  attr {
    key: "_output_shapes"
    value {
      list {
        shape {
        }
      }
    }
  }
  attr {
    key: "dtype"
    value {
      type: DT_FLOAT
    }
  }
  attr {
    key: "value"
    value {
      tensor {
        dtype: DT_FLOAT
        tensor_shape {
        }
        float_val: 1.000000013351432e-10
      }
    }
  }
}
node {
  name: "adanet/iteration_0/subnetwork_t0_linear/RMSProp/update_adanet/iteration_0/subnetwork_t0_linear/dense/kernel/ResourceApplyRMSProp"
  op: "ResourceApplyRMSProp"
  input: "adanet/iteration_0/subnetwork_t0_linear/dense/kernel"
  input: "adanet/iteration_0/subnetwork_t0_linear/adanet/iteration_0/subnetwork_t0_linear/dense/kernel/RMSProp"
  input: "adanet/iteration_0/subnetwork_t0_linear/adanet/iteration_0/subnetwork_t0_linear/dense/kernel/RMSProp_1"
  input: "adanet/iteration_0/subnetwork_t0_linear/RMSProp/learning_rate"
  input: "adanet/iteration_0/subnetwork_t0_linear/RMSProp/decay"
  input: "adanet/iteration_0/subnetwork_t0_linear/RMSProp/momentum"
  input: "adanet/iteration_0/subnetwork_t0_linear/RMSProp/epsilon"
  input: "adanet/iteration_0/subnetwork_t0_linear/gradients/adanet/iteration_0/subnetwork_t0_linear/dense/MatMul_grad/tuple/control_dependency_1"
  attr {
    key: "T"
    value {
      type: DT_FLOAT
    }
  }
  attr {
    key: "_class"
    value {
      list {
        s: "loc:@adanet/iteration_0/subnetwork_t0_linear/dense/kernel"
      }
    }
  }
  attr {
    key: "use_locking"
    value {
      b: false
    }
  }
}
node {
  name: "adanet/iteration_0/subnetwork_t0_linear/RMSProp/update_adanet/iteration_0/subnetwork_t0_linear/dense/bias/ResourceApplyRMSProp"
  op: "ResourceApplyRMSProp"
  input: "adanet/iteration_0/subnetwork_t0_linear/dense/bias"
  input: "adanet/iteration_0/subnetwork_t0_linear/adanet/iteration_0/subnetwork_t0_linear/dense/bias/RMSProp"
  input: "adanet/iteration_0/subnetwork_t0_linear/adanet/iteration_0/subnetwork_t0_linear/dense/bias/RMSProp_1"
  input: "adanet/iteration_0/subnetwork_t0_linear/RMSProp/learning_rate"
  input: "adanet/iteration_0/subnetwork_t0_linear/RMSProp/decay"
  input: "adanet/iteration_0/subnetwork_t0_linear/RMSProp/momentum"
  input: "adanet/iteration_0/subnetwork_t0_linear/RMSProp/epsilon"
  input: "adanet/iteration_0/subnetwork_t0_linear/gradients/adanet/iteration_0/subnetwork_t0_linear/dense/BiasAdd_grad/tuple/control_dependency_1"
  attr {
    key: "T"
    value {
      type: DT_FLOAT
    }
  }
  attr {
    key: "_class"
    value {
      list {
        s: "loc:@adanet/iteration_0/subnetwork_t0_linear/dense/bias"
      }
    }
  }
  attr {
    key: "use_locking"
    value {
      b: false
    }
  }
}
node {
  name: "adanet/iteration_0/subnetwork_t0_linear/RMSProp"
  op: "NoOp"
  input: "^adanet/iteration_0/subnetwork_t0_linear/RMSProp/update_adanet/iteration_0/subnetwork_t0_linear/dense/bias/ResourceApplyRMSProp"
  input: "^adanet/iteration_0/subnetwork_t0_linear/RMSProp/update_adanet/iteration_0/subnetwork_t0_linear/dense/kernel/ResourceApplyRMSProp"
}
node {
  name: "adanet/iteration_0/subnetwork_t0_1_layer_dnn/step/Initializer/zeros"
  op: "Const"
  attr {
    key: "_class"
    value {
      list {
        s: "loc:@adanet/iteration_0/subnetwork_t0_1_layer_dnn/step"
      }
    }
  }
  attr {
    key: "_output_shapes"
    value {
      list {
        shape {
        }
      }
    }
  }
  attr {
    key: "dtype"
    value {
      type: DT_INT64
    }
  }
  attr {
    key: "value"
    value {
      tensor {
        dtype: DT_INT64
        tensor_shape {
        }
        int64_val: 0
      }
    }
  }
}
node {
  name: "adanet/iteration_0/subnetwork_t0_1_layer_dnn/step"
  op: "VarHandleOp"
  attr {
    key: "_class"
    value {
      list {
        s: "loc:@adanet/iteration_0/subnetwork_t0_1_layer_dnn/step"
      }
    }
  }
  attr {
    key: "_output_shapes"
    value {
      list {
        shape {
        }
      }
    }
  }
  attr {
    key: "allowed_devices"
    value {
      list {
      }
    }
  }
  attr {
    key: "container"
    value {
      s: ""
    }
  }
  attr {
    key: "dtype"
    value {
      type: DT_INT64
    }
  }
  attr {
    key: "shape"
    value {
      shape {
      }
    }
  }
  attr {
    key: "shared_name"
    value {
      s: "adanet/iteration_0/subnetwork_t0_1_layer_dnn/step"
    }
  }
}
node {
  name: "adanet/iteration_0/subnetwork_t0_1_layer_dnn/step/IsInitialized/VarIsInitializedOp"
  op: "VarIsInitializedOp"
  input: "adanet/iteration_0/subnetwork_t0_1_layer_dnn/step"
  attr {
    key: "_output_shapes"
    value {
      list {
        shape {
        }
      }
    }
  }
}
node {
  name: "adanet/iteration_0/subnetwork_t0_1_layer_dnn/step/Assign"
  op: "AssignVariableOp"
  input: "adanet/iteration_0/subnetwork_t0_1_layer_dnn/step"
  input: "adanet/iteration_0/subnetwork_t0_1_layer_dnn/step/Initializer/zeros"
  attr {
    key: "dtype"
    value {
      type: DT_INT64
    }
  }
  attr {
    key: "validate_shape"
    value {
      b: false
    }
  }
}
node {
  name: "adanet/iteration_0/subnetwork_t0_1_layer_dnn/step/Read/ReadVariableOp"
  op: "ReadVariableOp"
  input: "adanet/iteration_0/subnetwork_t0_1_layer_dnn/step"
  attr {
    key: "_output_shapes"
    value {
      list {
        shape {
        }
      }
    }
  }
  attr {
    key: "dtype"
    value {
      type: DT_INT64
    }
  }
}
node {
  name: "adanet/iteration_0/subnetwork_t0_1_layer_dnn/ReadVariableOp"
  op: "ReadVariableOp"
  input: "adanet/iteration_0/subnetwork_t0_1_layer_dnn/step"
  attr {
    key: "_output_shapes"
    value {
      list {
        shape {
        }
      }
    }
  }
  attr {
    key: "dtype"
    value {
      type: DT_INT64
    }
  }
}
node {
  name: "adanet/iteration_0/subnetwork_t0_1_layer_dnn/Reshape/shape"
  op: "Const"
  attr {
    key: "_output_shapes"
    value {
      list {
        shape {
          dim {
          }
        }
      }
    }
  }
  attr {
    key: "dtype"
    value {
      type: DT_FLOAT
    }
  }
  attr {
    key: "value"
    value {
      tensor {
        dtype: DT_FLOAT
        tensor_shape {
          dim {
          }
        }
      }
    }
  }
}
node {
  name: "adanet/iteration_0/subnetwork_t0_1_layer_dnn/Reshape/shape_1"
  op: "Const"
  attr {
    key: "_output_shapes"
    value {
      list {
        shape {
          dim {
          }
        }
      }
    }
  }
  attr {
    key: "dtype"
    value {
      type: DT_INT32
    }
  }
  attr {
    key: "value"
    value {
      tensor {
        dtype: DT_INT32
        tensor_shape {
          dim {
          }
        }
      }
    }
  }
}
node {
  name: "adanet/iteration_0/subnetwork_t0_1_layer_dnn/Reshape"
  op: "Reshape"
  input: "adanet/iteration_0/subnetwork_t0_1_layer_dnn/ReadVariableOp"
  input: "adanet/iteration_0/subnetwork_t0_1_layer_dnn/Reshape/shape_1"
  attr {
    key: "T"
    value {
      type: DT_INT64
    }
  }
  attr {
    key: "Tshape"
    value {
      type: DT_INT32
    }
  }
  attr {
    key: "_output_shapes"
    value {
      list {
        shape {
        }
      }
    }
  }
}
node {
  name: "adanet/iteration_0/subnetwork_t0_1_layer_dnn/Reshape_1/shape"
  op: "Const"
  attr {
    key: "_output_shapes"
    value {
      list {
        shape {
          dim {
            size: 2
          }
        }
      }
    }
  }
  attr {
    key: "dtype"
    value {
      type: DT_INT32
    }
  }
  attr {
    key: "value"
    value {
      tensor {
        dtype: DT_INT32
        tensor_shape {
          dim {
            size: 2
          }
        }
        tensor_content: "\377\377\377\377\024\000\000\000"
      }
    }
  }
}
node {
  name: "adanet/iteration_0/subnetwork_t0_1_layer_dnn/Reshape_1"
  op: "Reshape"
  input: "IteratorGetNext"
  input: "adanet/iteration_0/subnetwork_t0_1_layer_dnn/Reshape_1/shape"
  attr {
    key: "T"
    value {
      type: DT_FLOAT
    }
  }
  attr {
    key: "Tshape"
    value {
      type: DT_INT32
    }
  }
  attr {
    key: "_output_shapes"
    value {
      list {
        shape {
          dim {
            size: -1
          }
          dim {
            size: 20
          }
        }
      }
    }
  }
}
node {
  name: "adanet/iteration_0/subnetwork_t0_1_layer_dnn/nan_masking_layer/IsNan"
  op: "IsNan"
  input: "adanet/iteration_0/subnetwork_t0_1_layer_dnn/Reshape_1"
  attr {
    key: "T"
    value {
      type: DT_FLOAT
    }
  }
  attr {
    key: "_output_shapes"
    value {
      list {
        shape {
          dim {
            size: -1
          }
          dim {
            size: 20
          }
        }
      }
    }
  }
}
node {
  name: "adanet/iteration_0/subnetwork_t0_1_layer_dnn/nan_masking_layer/ones_like/Shape"
  op: "Shape"
  input: "adanet/iteration_0/subnetwork_t0_1_layer_dnn/Reshape_1"
  attr {
    key: "T"
    value {
      type: DT_FLOAT
    }
  }
  attr {
    key: "_output_shapes"
    value {
      list {
        shape {
          dim {
            size: 2
          }
        }
      }
    }
  }
  attr {
    key: "out_type"
    value {
      type: DT_INT32
    }
  }
}
node {
  name: "adanet/iteration_0/subnetwork_t0_1_layer_dnn/nan_masking_layer/ones_like/Const"
  op: "Const"
  attr {
    key: "_output_shapes"
    value {
      list {
        shape {
        }
      }
    }
  }
  attr {
    key: "dtype"
    value {
      type: DT_FLOAT
    }
  }
  attr {
    key: "value"
    value {
      tensor {
        dtype: DT_FLOAT
        tensor_shape {
        }
        float_val: 1.0
      }
    }
  }
}
node {
  name: "adanet/iteration_0/subnetwork_t0_1_layer_dnn/nan_masking_layer/ones_like"
  op: "Fill"
  input: "adanet/iteration_0/subnetwork_t0_1_layer_dnn/nan_masking_layer/ones_like/Shape"
  input: "adanet/iteration_0/subnetwork_t0_1_layer_dnn/nan_masking_layer/ones_like/Const"
  attr {
    key: "T"
    value {
      type: DT_FLOAT
    }
  }
  attr {
    key: "_output_shapes"
    value {
      list {
        shape {
          dim {
            size: -1
          }
          dim {
            size: 20
          }
        }
      }
    }
  }
  attr {
    key: "index_type"
    value {
      type: DT_INT32
    }
  }
}
node {
  name: "adanet/iteration_0/subnetwork_t0_1_layer_dnn/nan_masking_layer/mul/y"
  op: "Const"
  attr {
    key: "_output_shapes"
    value {
      list {
        shape {
        }
      }
    }
  }
  attr {
    key: "dtype"
    value {
      type: DT_FLOAT
    }
  }
  attr {
    key: "value"
    value {
      tensor {
        dtype: DT_FLOAT
        tensor_shape {
        }
        float_val: 0.0
      }
    }
  }
}
node {
  name: "adanet/iteration_0/subnetwork_t0_1_layer_dnn/nan_masking_layer/mul"
  op: "Mul"
  input: "adanet/iteration_0/subnetwork_t0_1_layer_dnn/nan_masking_layer/ones_like"
  input: "adanet/iteration_0/subnetwork_t0_1_layer_dnn/nan_masking_layer/mul/y"
  attr {
    key: "T"
    value {
      type: DT_FLOAT
    }
  }
  attr {
    key: "_output_shapes"
    value {
      list {
        shape {
          dim {
            size: -1
          }
          dim {
            size: 20
          }
        }
      }
    }
  }
}
node {
  name: "adanet/iteration_0/subnetwork_t0_1_layer_dnn/nan_masking_layer/Select"
  op: "Select"
  input: "adanet/iteration_0/subnetwork_t0_1_layer_dnn/nan_masking_layer/IsNan"
  input: "adanet/iteration_0/subnetwork_t0_1_layer_dnn/nan_masking_layer/mul"
  input: "adanet/iteration_0/subnetwork_t0_1_layer_dnn/Reshape_1"
  attr {
    key: "T"
    value {
      type: DT_FLOAT
    }
  }
  attr {
    key: "_output_shapes"
    value {
      list {
        shape {
          dim {
            size: -1
          }
          dim {
            size: 20
          }
        }
      }
    }
  }
}
node {
  name: "adanet/iteration_0/subnetwork_t0_1_layer_dnn/dense/kernel/Initializer/random_uniform/shape"
  op: "Const"
  attr {
    key: "_class"
    value {
      list {
        s: "loc:@adanet/iteration_0/subnetwork_t0_1_layer_dnn/dense/kernel"
      }
    }
  }
  attr {
    key: "_output_shapes"
    value {
      list {
        shape {
          dim {
            size: 2
          }
        }
      }
    }
  }
  attr {
    key: "dtype"
    value {
      type: DT_INT32
    }
  }
  attr {
    key: "value"
    value {
      tensor {
        dtype: DT_INT32
        tensor_shape {
          dim {
            size: 2
          }
        }
        tensor_content: "\024\000\000\000\000\004\000\000"
      }
    }
  }
}
node {
  name: "adanet/iteration_0/subnetwork_t0_1_layer_dnn/dense/kernel/Initializer/random_uniform/min"
  op: "Const"
  attr {
    key: "_class"
    value {
      list {
        s: "loc:@adanet/iteration_0/subnetwork_t0_1_layer_dnn/dense/kernel"
      }
    }
  }
  attr {
    key: "_output_shapes"
    value {
      list {
        shape {
        }
      }
    }
  }
  attr {
    key: "dtype"
    value {
      type: DT_FLOAT
    }
  }
  attr {
    key: "value"
    value {
      tensor {
        dtype: DT_FLOAT
        tensor_shape {
        }
        float_val: -0.07580980658531189
      }
    }
  }
}
node {
  name: "adanet/iteration_0/subnetwork_t0_1_layer_dnn/dense/kernel/Initializer/random_uniform/max"
  op: "Const"
  attr {
    key: "_class"
    value {
      list {
        s: "loc:@adanet/iteration_0/subnetwork_t0_1_layer_dnn/dense/kernel"
      }
    }
  }
  attr {
    key: "_output_shapes"
    value {
      list {
        shape {
        }
      }
    }
  }
  attr {
    key: "dtype"
    value {
      type: DT_FLOAT
    }
  }
  attr {
    key: "value"
    value {
      tensor {
        dtype: DT_FLOAT
        tensor_shape {
        }
        float_val: 0.07580980658531189
      }
    }
  }
}
node {
  name: "adanet/iteration_0/subnetwork_t0_1_layer_dnn/dense/kernel/Initializer/random_uniform/RandomUniform"
  op: "RandomUniform"
  input: "adanet/iteration_0/subnetwork_t0_1_layer_dnn/dense/kernel/Initializer/random_uniform/shape"
  attr {
    key: "T"
    value {
      type: DT_INT32
    }
  }
  attr {
    key: "_class"
    value {
      list {
        s: "loc:@adanet/iteration_0/subnetwork_t0_1_layer_dnn/dense/kernel"
      }
    }
  }
  attr {
    key: "_output_shapes"
    value {
      list {
        shape {
          dim {
            size: 20
          }
          dim {
            size: 1024
          }
        }
      }
    }
  }
  attr {
    key: "dtype"
    value {
      type: DT_FLOAT
    }
  }
  attr {
    key: "seed"
    value {
      i: 42
    }
  }
  attr {
    key: "seed2"
    value {
      i: 2
    }
  }
}
node {
  name: "adanet/iteration_0/subnetwork_t0_1_layer_dnn/dense/kernel/Initializer/random_uniform/sub"
  op: "Sub"
  input: "adanet/iteration_0/subnetwork_t0_1_layer_dnn/dense/kernel/Initializer/random_uniform/max"
  input: "adanet/iteration_0/subnetwork_t0_1_layer_dnn/dense/kernel/Initializer/random_uniform/min"
  attr {
    key: "T"
    value {
      type: DT_FLOAT
    }
  }
  attr {
    key: "_class"
    value {
      list {
        s: "loc:@adanet/iteration_0/subnetwork_t0_1_layer_dnn/dense/kernel"
      }
    }
  }
  attr {
    key: "_output_shapes"
    value {
      list {
        shape {
        }
      }
    }
  }
}
node {
  name: "adanet/iteration_0/subnetwork_t0_1_layer_dnn/dense/kernel/Initializer/random_uniform/mul"
  op: "Mul"
  input: "adanet/iteration_0/subnetwork_t0_1_layer_dnn/dense/kernel/Initializer/random_uniform/RandomUniform"
  input: "adanet/iteration_0/subnetwork_t0_1_layer_dnn/dense/kernel/Initializer/random_uniform/sub"
  attr {
    key: "T"
    value {
      type: DT_FLOAT
    }
  }
  attr {
    key: "_class"
    value {
      list {
        s: "loc:@adanet/iteration_0/subnetwork_t0_1_layer_dnn/dense/kernel"
      }
    }
  }
  attr {
    key: "_output_shapes"
    value {
      list {
        shape {
          dim {
            size: 20
          }
          dim {
            size: 1024
          }
        }
      }
    }
  }
}
node {
  name: "adanet/iteration_0/subnetwork_t0_1_layer_dnn/dense/kernel/Initializer/random_uniform"
  op: "AddV2"
  input: "adanet/iteration_0/subnetwork_t0_1_layer_dnn/dense/kernel/Initializer/random_uniform/mul"
  input: "adanet/iteration_0/subnetwork_t0_1_layer_dnn/dense/kernel/Initializer/random_uniform/min"
  attr {
    key: "T"
    value {
      type: DT_FLOAT
    }
  }
  attr {
    key: "_class"
    value {
      list {
        s: "loc:@adanet/iteration_0/subnetwork_t0_1_layer_dnn/dense/kernel"
      }
    }
  }
  attr {
    key: "_output_shapes"
    value {
      list {
        shape {
          dim {
            size: 20
          }
          dim {
            size: 1024
          }
        }
      }
    }
  }
}
node {
  name: "adanet/iteration_0/subnetwork_t0_1_layer_dnn/dense/kernel"
  op: "VarHandleOp"
  attr {
    key: "_class"
    value {
      list {
        s: "loc:@adanet/iteration_0/subnetwork_t0_1_layer_dnn/dense/kernel"
      }
    }
  }
  attr {
    key: "_output_shapes"
    value {
      list {
        shape {
        }
      }
    }
  }
  attr {
…
        value {
          type: DT_INT32
        }
      }
      attr {
        key: "_output_shapes"
        value {
          list {
            shape {
              dim {
                size: -1
              }
            }
          }
        }
      }
      attr {
        key: "begin_mask"
        value {
          i: 1
        }
      }
      attr {
        key: "ellipsis_mask"
        value {
          i: 0
        }
      }
      attr {
        key: "end_mask"
        value {
          i: 0
        }
      }
      attr {
        key: "new_axis_mask"
        value {
          i: 0
        }
      }
      attr {
        key: "shrink_axis_mask"
        value {
          i: 0
        }
      }
    }
    node_def {
      name: "Cast"
      op: "Cast"
      input: "strided_slice_1:output:0"
      device: "/device:CPU:0"
      attr {
        key: "DstT"
        value {
          type: DT_DOUBLE
        }
      }
      attr {
        key: "SrcT"
        value {
          type: DT_INT32
        }
      }
      attr {
        key: "Truncate"
        value {
          b: false
        }
      }
      attr {
        key: "_output_shapes"
        value {
          list {
            shape {
              dim {
                size: -1
              }
            }
          }
        }
      }
    }
    node_def {
      name: "stack"
      op: "Pack"
      input: "Fill:output:0"
      input: "Fill:output:0"
      input: "Cast:y:0"
      device: "/device:CPU:0"
      attr {
        key: "N"
        value {
          i: 3
        }
      }
      attr {
        key: "T"
        value {
          type: DT_DOUBLE
        }
      }
      attr {
        key: "_output_shapes"
        value {
          list {
            shape {
              dim {
                size: 3
              }
              dim {
                size: -1
              }
            }
          }
        }
      }
      attr {
        key: "axis"
        value {
          i: 0
        }
      }
    }
    node_def {
      name: "transpose/perm"
      op: "Const"
      device: "/device:CPU:0"
      attr {
        key: "_output_shapes"
        value {
          list {
            shape {
              dim {
                size: 2
              }
            }
          }
        }
      }
      attr {
        key: "dtype"
        value {
          type: DT_INT32
        }
      }
      attr {
        key: "value"
        value {
          tensor {
            dtype: DT_INT32
            tensor_shape {
              dim {
                size: 2
              }
            }
            tensor_content: "\001\000\000\000\000\000\000\000"
          }
        }
      }
    }
    node_def {
      name: "transpose_0"
      op: "Transpose"
      input: "stack:output:0"
      input: "transpose/perm:output:0"
      device: "/device:CPU:0"
      attr {
        key: "T"
        value {
          type: DT_DOUBLE
        }
      }
      attr {
        key: "Tperm"
        value {
          type: DT_INT32
        }
      }
    }
    ret {
      key: "transpose"
      value: "transpose_0:y:0"
    }
    attr {
      key: "_input_shapes"
      value {
        list {
          shape {
          }
          shape {
          }
          shape {
          }
          shape {
          }
          shape {
            dim {
              size: 1
            }
          }
          shape {
          }
        }
      }
    }
    arg_attr {
      value {
        attr {
          key: "_output_shapes"
          value {
            list {
              shape {
              }
            }
          }
        }
      }
    }
    arg_attr {
      key: 1
      value {
        attr {
          key: "_output_shapes"
          value {
            list {
              shape {
              }
            }
          }
        }
      }
    }
    arg_attr {
      key: 2
      value {
        attr {
          key: "_output_shapes"
          value {
            list {
              shape {
              }
            }
          }
        }
      }
    }
    arg_attr {
      key: 3
      value {
        attr {
          key: "_output_shapes"
          value {
            list {
              shape {
              }
            }
          }
        }
      }
    }
    arg_attr {
      key: 4
      value {
        attr {
          key: "_output_shapes"
          value {
            list {
              shape {
                dim {
                  size: 1
                }
              }
            }
          }
        }
      }
    }
    arg_attr {
      key: 5
      value {
        attr {
          key: "_output_shapes"
          value {
            list {
              shape {
              }
            }
          }
        }
      }
    }
  }
  function {
    signature {
      name: "adanet_iteration_0_ensemble_t0_linear_grow_complexity_regularized_t0_linear_grow_complexity_regularized_mixture_weights_adanet_adanet_weighted_ensemble_write_summary_buckets_cond_true_83966"
      input_arg {
        name: "zeros_packed_adanet_iteration_0_ensemble_t0_linear_grow_complexity_regularized_t0_linear_grow_complexity_regularized_mixture_weights_adanet_adanet_weighted_ensemble_write_summary_buckets_maximum"
        type: DT_INT32
      }
      input_arg {
        name: "placeholder"
        type: DT_DOUBLE
      }
      input_arg {
        name: "placeholder_1"
        type: DT_INT32
      }
      output_arg {
        name: "zeros"
        type: DT_DOUBLE
      }
    }
    node_def {
      name: "zeros/packed/1"
      op: "Const"
      device: "/device:CPU:0"
      attr {
        key: "_output_shapes"
        value {
          list {
            shape {
            }
          }
        }
      }
      attr {
        key: "dtype"
        value {
          type: DT_INT32
        }
      }
      attr {
        key: "value"
        value {
          tensor {
            dtype: DT_INT32
            tensor_shape {
            }
            int_val: 3
          }
        }
      }
    }
    node_def {
      name: "zeros/packed"
      op: "Pack"
      input: "zeros_packed_adanet_iteration_0_ensemble_t0_linear_grow_complexity_regularized_t0_linear_grow_complexity_regularized_mixture_weights_adanet_adanet_weighted_ensemble_write_summary_buckets_maximum"
      input: "zeros/packed/1:output:0"
      device: "/device:CPU:0"
      attr {
        key: "N"
        value {
          i: 2
        }
      }
      attr {
        key: "T"
        value {
          type: DT_INT32
        }
      }
      attr {
        key: "_output_shapes"
        value {
          list {
            shape {
              dim {
                size: 2
              }
            }
          }
        }
      }
      attr {
        key: "axis"
        value {
          i: 0
        }
      }
    }
    node_def {
      name: "zeros/Const"
      op: "Const"
      device: "/device:CPU:0"
      attr {
        key: "_output_shapes"
        value {
          list {
            shape {
            }
          }
        }
      }
      attr {
        key: "dtype"
        value {
          type: DT_DOUBLE
        }
      }
      attr {
        key: "value"
        value {
          tensor {
            dtype: DT_DOUBLE
            tensor_shape {
            }
            double_val: 0.0
          }
        }
      }
    }
    node_def {
      name: "zeros_0"
      op: "Fill"
      input: "zeros/packed:output:0"
      input: "zeros/Const:output:0"
      device: "/device:CPU:0"
      attr {
        key: "T"
        value {
          type: DT_DOUBLE
        }
      }
      attr {
        key: "index_type"
        value {
          type: DT_INT32
        }
      }
    }
    ret {
      key: "zeros"
      value: "zeros_0:output:0"
    }
    attr {
      key: "_input_shapes"
      value {
        list {
          shape {
          }
          shape {
            dim {
              size: 1
            }
          }
          shape {
          }
        }
      }
    }
    arg_attr {
      value {
        attr {
          key: "_output_shapes"
          value {
            list {
              shape {
              }
            }
          }
        }
      }
    }
    arg_attr {
      key: 1
      value {
        attr {
          key: "_output_shapes"
          value {
            list {
              shape {
                dim {
                  size: 1
                }
              }
            }
          }
        }
      }
    }
    arg_attr {
      key: 2
      value {
        attr {
          key: "_output_shapes"
          value {
            list {
              shape {
              }
            }
          }
        }
      }
    }
  }
  function {
    signature {
      name: "__inference_Dataset_from_generator_get_iterator_id_fn_82809"
      input_arg {
        name: "args_0"
        type: DT_INT32
      }
      output_arg {
        name: "identity"
        type: DT_INT64
      }
      is_stateful: true
      control_output: "PyFunc"
    }
    node_def {
      name: "PyFunc"
      op: "PyFunc"
      attr {
        key: "Tin"
        value {
          list {
          }
        }
      }
      attr {
        key: "Tout"
        value {
          list {
            type: DT_INT64
          }
        }
      }
      attr {
        key: "_output_shapes"
        value {
          list {
            shape {
              unknown_rank: true
            }
          }
        }
      }
      attr {
        key: "token"
        value {
          s: "pyfunc_36"
        }
      }
    }
    node_def {
      name: "Identity"
      op: "Identity"
      input: "PyFunc:output:0"
      input: "^NoOp"
      attr {
        key: "T"
        value {
          type: DT_INT64
        }
      }
      attr {
        key: "_output_shapes"
        value {
          list {
            shape {
              unknown_rank: true
            }
          }
        }
      }
    }
    node_def {
      name: "NoOp"
      op: "NoOp"
      input: "^PyFunc"
      attr {
        key: "_acd_function_control_output"
        value {
          b: true
        }
      }
      attr {
        key: "_output_shapes"
        value {
          list {
          }
        }
      }
    }
    ret {
      key: "identity"
      value: "Identity:output:0"
    }
    attr {
      key: "_input_shapes"
      value {
        list {
          shape {
          }
        }
      }
    }
    attr {
      key: "_tf_data_function"
      value {
        b: true
      }
    }
    control_ret {
      key: "PyFunc"
      value: "PyFunc"
    }
    arg_attr {
      value {
        attr {
          key: "_output_shapes"
          value {
            list {
              shape {
              }
            }
          }
        }
        attr {
          key: "_user_specified_name"
          value {
            s: "args_0"
          }
        }
      }
    }
  }
  function {
    signature {
      name: "adanet_iteration_0_ensemble_t0_linear_grow_complexity_regularized_t0_linear_grow_complexity_regularized_mixture_weights_adanet_adanet_weighted_ensemble_write_summary_buckets_cond_false_83967"
      input_arg {
        name: "cond_adanet_iteration_0_ensemble_t0_linear_grow_complexity_regularized_t0_linear_grow_complexity_regularized_mixture_weights_adanet_adanet_weighted_ensemble_write_summary_buckets_maximum"
        type: DT_INT32
      }
      input_arg {
        name: "min_adanet_iteration_0_ensemble_t0_linear_grow_complexity_regularized_t0_linear_grow_complexity_regularized_mixture_weights_adanet_adanet_weighted_ensemble_write_summary_buckets_cast"
        type: DT_DOUBLE
      }
      input_arg {
        name: "cond_adanet_iteration_0_ensemble_t0_linear_grow_complexity_regularized_t0_linear_grow_complexity_regularized_mixture_weights_adanet_adanet_weighted_ensemble_write_summary_buckets_size"
        type: DT_INT32
      }
      output_arg {
        name: "cond_identity"
        type: DT_DOUBLE
      }
    }
    node_def {
      name: "Const"
      op: "Const"
      device: "/device:CPU:0"
      attr {
        key: "_output_shapes"
        value {
          list {
            shape {
              dim {
                size: 1
              }
            }
          }
        }
      }
      attr {
        key: "dtype"
        value {
          type: DT_INT32
        }
      }
      attr {
        key: "value"
        value {
          tensor {
            dtype: DT_INT32
            tensor_shape {
              dim {
                size: 1
              }
            }
            int_val: 0
          }
        }
      }
    }
    node_def {
      name: "Min"
      op: "Min"
      input: "min_adanet_iteration_0_ensemble_t0_linear_grow_complexity_regularized_t0_linear_grow_complexity_regularized_mixture_weights_adanet_adanet_weighted_ensemble_write_summary_buckets_cast"
      input: "Const:output:0"
      device: "/device:CPU:0"
      attr {
        key: "T"
        value {
          type: DT_DOUBLE
        }
      }
      attr {
        key: "Tidx"
        value {
          type: DT_INT32
        }
      }
      attr {
        key: "_output_shapes"
        value {
          list {
            shape {
            }
          }
        }
      }
      attr {
        key: "keep_dims"
        value {
          b: false
        }
      }
    }
    node_def {
      name: "Const_1"
      op: "Const"
      device: "/device:CPU:0"
      attr {
        key: "_output_shapes"
        value {
          list {
            shape {
              dim {
                size: 1
              }
            }
          }
        }
      }
      attr {
        key: "dtype"
        value {
          type: DT_INT32
        }
      }
      attr {
        key: "value"
        value {
          tensor {
            dtype: DT_INT32
            tensor_shape {
              dim {
                size: 1
              }
            }
            int_val: 0
          }
        }
      }
    }
    node_def {
      name: "Max"
      op: "Max"
      input: "min_adanet_iteration_0_ensemble_t0_linear_grow_complexity_regularized_t0_linear_grow_complexity_regularized_mixture_weights_adanet_adanet_weighted_ensemble_write_summary_buckets_cast"
      input: "Const_1:output:0"
      device: "/device:CPU:0"
      attr {
        key: "T"
        value {
          type: DT_DOUBLE
        }
      }
      attr {
        key: "Tidx"
        value {
          type: DT_INT32
        }
      }
      attr {
        key: "_output_shapes"
        value {
          list {
            shape {
            }
          }
        }
      }
      attr {
        key: "keep_dims"
        value {
          b: false
        }
      }
    }
    node_def {
      name: "sub"
      op: "Sub"
      input: "Max:output:0"
      input: "Min:output:0"
      device: "/device:CPU:0"
      attr {
        key: "T"
        value {
          type: DT_DOUBLE
        }
      }
      attr {
        key: "_output_shapes"
        value {
          list {
            shape {
            }
          }
        }
      }
    }
    node_def {
      name: "Equal/y"
      op: "Const"
      device: "/device:CPU:0"
      attr {
        key: "_output_shapes"
        value {
          list {
            shape {
            }
          }
        }
      }
      attr {
        key: "dtype"
        value {
          type: DT_DOUBLE
        }
      }
      attr {
        key: "value"
        value {
          tensor {
            dtype: DT_DOUBLE
            tensor_shape {
            }
            double_val: 0.0
          }
        }
      }
    }
    node_def {
      name: "Equal"
      op: "Equal"
      input: "sub:z:0"
      input: "Equal/y:output:0"
      device: "/device:CPU:0"
      attr {
        key: "T"
        value {
          type: DT_DOUBLE
        }
      }
      attr {
        key: "_output_shapes"
        value {
          list {
            shape {
            }
          }
        }
      }
      attr {
        key: "incompatible_shape_error"
        value {
          b: true
        }
      }
    }
    node_def {
      name: "cond"
      op: "StatelessIf"
      input: "Equal:z:0"
      input: "cond_adanet_iteration_0_ensemble_t0_linear_grow_complexity_regularized_t0_linear_grow_complexity_regularized_mixture_weights_adanet_adanet_weighted_ensemble_write_summary_buckets_maximum"
      input: "Max:output:0"
      input: "cond_adanet_iteration_0_ensemble_t0_linear_grow_complexity_regularized_t0_linear_grow_complexity_regularized_mixture_weights_adanet_adanet_weighted_ensemble_write_summary_buckets_size"
      input: "sub:z:0"
      input: "min_adanet_iteration_0_ensemble_t0_linear_grow_complexity_regularized_t0_linear_grow_complexity_regularized_mixture_weights_adanet_adanet_weighted_ensemble_write_summary_buckets_cast"
      input: "Min:output:0"
      device: "/device:CPU:0"
      attr {
        key: "Tcond"
        value {
          type: DT_BOOL
        }
      }
      attr {
        key: "Tin"
        value {
          list {
            type: DT_INT32
            type: DT_DOUBLE
            type: DT_INT32
            type: DT_DOUBLE
            type: DT_DOUBLE
            type: DT_DOUBLE
          }
        }
      }
      attr {
        key: "Tout"
        value {
          list {
            type: DT_DOUBLE
          }
        }
      }
      attr {
        key: "_lower_using_switch_merge"
        value {
          b: true
        }
      }
      attr {
        key: "_output_shapes"
        value {
          list {
            shape {
              dim {
                size: -1
              }
              dim {
                size: 3
              }
            }
          }
        }
      }
      attr {
        key: "_read_only_resource_inputs"
        value {
          list {
          }
        }
      }
      attr {
        key: "else_branch"
        value {
          func {
            name: "cond_false_83984"
          }
        }
      }
      attr {
        key: "output_shapes"
        value {
          list {
            shape {
              dim {
                size: -1
              }
              dim {
                size: 3
              }
            }
          }
        }
      }
      attr {
        key: "then_branch"
        value {
          func {
            name: "cond_true_83983"
          }
        }
      }
    }
    node_def {
      name: "cond/Identity"
      op: "Identity"
      input: "cond:output:0"
      device: "/device:CPU:0"
      attr {
        key: "T"
        value {
          type: DT_DOUBLE
        }
      }
      attr {
        key: "_output_shapes"
        value {
          list {
            shape {
              dim {
                size: -1
              }
              dim {
                size: 3
              }
            }
          }
        }
      }
    }
    ret {
      key: "cond_identity"
      value: "cond/Identity:output:0"
    }
    attr {
      key: "_input_shapes"
      value {
        list {
          shape {
          }
          shape {
            dim {
              size: 1
            }
          }
          shape {
          }
        }
      }
    }
    arg_attr {
      value {
        attr {
          key: "_output_shapes"
          value {
            list {
              shape {
              }
            }
          }
        }
      }
    }
    arg_attr {
      key: 1
      value {
        attr {
          key: "_output_shapes"
          value {
            list {
              shape {
                dim {
                  size: 1
                }
              }
            }
          }
        }
      }
    }
    arg_attr {
      key: 2
      value {
        attr {
          key: "_output_shapes"
          value {
            list {
              shape {
              }
            }
          }
        }
      }
    }
  }
  function {
    signature {
      name: "cond_true_84209"
      input_arg {
        name: "fill_dims_adanet_iteration_0_ensemble_t0_1_layer_dnn_grow_complexity_regularized_t0_1_layer_dnn_grow_complexity_regularized_mixture_weights_adanet_adanet_weighted_ensemble_write_summary_buckets_maximum"
        type: DT_INT32
      }
      input_arg {
        name: "fill_max"
        type: DT_DOUBLE
      }
      input_arg {
        name: "concat_values_1_adanet_iteration_0_ensemble_t0_1_layer_dnn_grow_complexity_regularized_t0_1_layer_dnn_grow_complexity_regularized_mixture_weights_adanet_adanet_weighted_ensemble_write_summary_buckets_size"
        type: DT_INT32
      }
      input_arg {
        name: "placeholder"
        type: DT_DOUBLE
      }
      input_arg {
        name: "placeholder_1"
        type: DT_DOUBLE
      }
      input_arg {
        name: "placeholder_2"
        type: DT_DOUBLE
      }
      output_arg {
        name: "transpose"
        type: DT_DOUBLE
      }
    }
    node_def {
      name: "Fill/dims"
      op: "Pack"
      input: "fill_dims_adanet_iteration_0_ensemble_t0_1_layer_dnn_grow_complexity_regularized_t0_1_layer_dnn_grow_complexity_regularized_mixture_weights_adanet_adanet_weighted_ensemble_write_summary_buckets_maximum"
      device: "/device:CPU:0"
      attr {
        key: "N"
        value {
          i: 1
        }
      }
      attr {
        key: "T"
        value {
          type: DT_INT32
        }
      }
      attr {
        key: "_output_shapes"
        value {
          list {
            shape {
              dim {
                size: 1
              }
            }
          }
        }
      }
      attr {
        key: "axis"
        value {
          i: 0
        }
      }
    }
    node_def {
      name: "Fill"
      op: "Fill"
      input: "Fill/dims:output:0"
      input: "fill_max"
      device: "/device:CPU:0"
      attr {
        key: "T"
        value {
          type: DT_DOUBLE
        }
      }
      attr {
        key: "_output_shapes"
        value {
          list {
            shape {
              dim {
                size: -1
              }
            }
          }
        }
      }
      attr {
        key: "index_type"
        value {
          type: DT_INT32
        }
      }
    }
    node_def {
      name: "Fill_1/dims"
      op: "Pack"
      input: "fill_dims_adanet_iteration_0_ensemble_t0_1_layer_dnn_grow_complexity_regularized_t0_1_layer_dnn_grow_complexity_regularized_mixture_weights_adanet_adanet_weighted_ensemble_write_summary_buckets_maximum"
      device: "/device:CPU:0"
      attr {
        key: "N"
        value {
          i: 1
        }
      }
      attr {
        key: "T"
        value {
          type: DT_INT32
        }
      }
      attr {
        key: "_output_shapes"
        value {
          list {
            shape {
              dim {
                size: 1
              }
            }
          }
        }
      }
      attr {
        key: "axis"
        value {
          i: 0
        }
      }
    }
    node_def {
      name: "Fill_1/value"
      op: "Const"
      device: "/device:CPU:0"
      attr {
        key: "_output_shapes"
        value {
          list {
            shape {
            }
          }
        }
      }
      attr {
        key: "dtype"
        value {
          type: DT_INT32
        }
      }
      attr {
        key: "value"
        value {
          tensor {
            dtype: DT_INT32
            tensor_shape {
            }
            int_val: 0
          }
        }
      }
    }
    node_def {
      name: "Fill_1"
      op: "Fill"
      input: "Fill_1/dims:output:0"
      input: "Fill_1/value:output:0"
      device: "/device:CPU:0"
      attr {
        key: "T"
        value {
          type: DT_INT32
        }
      }
      attr {
        key: "_output_shapes"
        value {
          list {
            shape {
              dim {
                size: -1
              }
            }
          }
        }
      }
      attr {
        key: "index_type"
        value {
          type: DT_INT32
        }
      }
    }
    node_def {
      name: "strided_slice/stack"
      op: "Const"
      device: "/device:CPU:0"
      attr {
        key: "_output_shapes"
        value {
          list {
            shape {
              dim {
                size: 1
              }
            }
          }
        }
      }
      attr {
        key: "dtype"
        value {
          type: DT_INT32
        }
      }
      attr {
        key: "value"
        value {
          tensor {
            dtype: DT_INT32
            tensor_shape {
              dim {
                size: 1
              }
            }
            int_val: 0
          }
        }
      }
    }
    node_def {
      name: "strided_slice/stack_1"
      op: "Const"
      device: "/device:CPU:0"
      attr {
        key: "_output_shapes"
        value {
          list {
            shape {
              dim {
                size: 1
              }
            }
          }
        }
      }
      attr {
        key: "dtype"
        value {
          type: DT_INT32
        }
      }
      attr {
        key: "value"
        value {
          tensor {
            dtype: DT_INT32
            tensor_shape {
              dim {
                size: 1
              }
            }
            int_val: -1
          }
        }
      }
    }
    node_def {
      name: "strided_slice/stack_2"
      op: "Const"
      device: "/device:CPU:0"
      attr {
        key: "_output_shapes"
        value {
          list {
            shape {
              dim {
                size: 1
              }
            }
          }
        }
      }
      attr {
        key: "dtype"
        value {
          type: DT_INT32
        }
      }
      attr {
        key: "value"
        value {
          tensor {
            dtype: DT_INT32
            tensor_shape {
              dim {
                size: 1
              }
            }
            int_val: 1
          }
        }
      }
    }
    node_def {
      name: "strided_slice"
      op: "StridedSlice"
      input: "Fill_1:output:0"
      input: "strided_slice/stack:output:0"
      input: "strided_slice/stack_1:output:0"
      input: "strided_slice/stack_2:output:0"
      device: "/device:CPU:0"
      attr {
        key: "Index"
        value {
          type: DT_INT32
        }
      }
      attr {
        key: "T"
        value {
          type: DT_INT32
        }
      }
      attr {
        key: "_output_shapes"
        value {
          list {
            shape {
              dim {
                size: -1
              }
            }
          }
        }
      }
      attr {
        key: "begin_mask"
        value {
          i: 1
        }
      }
      attr {
        key: "ellipsis_mask"
        value {
          i: 0
        }
      }
      attr {
        key: "end_mask"
        value {
          i: 0
        }
      }
      attr {
        key: "new_axis_mask"
        value {
          i: 0
        }
      }
      attr {
        key: "shrink_axis_mask"
        value {
          i: 0
        }
      }
    }
    node_def {
      name: "concat/values_1"
      op: "Pack"
      input: "concat_values_1_adanet_iteration_0_ensemble_t0_1_layer_dnn_grow_complexity_regularized_t0_1_layer_dnn_grow_complexity_regularized_mixture_weights_adanet_adanet_weighted_ensemble_write_summary_buckets_size"
      device: "/device:CPU:0"
      attr {
        key: "N"
        value {
          i: 1
        }
      }
      attr {
        key: "T"
        value {
          type: DT_INT32
        }
      }
      attr {
        key: "_output_shapes"
        value {
          list {
            shape {
              dim {
                size: 1
              }
            }
          }
        }
      }
      attr {
        key: "axis"
        value {
          i: 0
        }
      }
    }
    node_def {
      name: "concat/axis"
      op: "Const"
      device: "/device:CPU:0"
      attr {
        key: "_output_shapes"
        value {
          list {
            shape {
            }
          }
        }
      }
      attr {
        key: "dtype"
        value {
          type: DT_INT32
        }
      }
      attr {
        key: "value"
        value {
          tensor {
            dtype: DT_INT32
            tensor_shape {
            }
            int_val: 0
          }
        }
      }
    }
    node_def {
      name: "concat"
      op: "ConcatV2"
      input: "strided_slice:output:0"
      input: "concat/values_1:output:0"
      input: "concat/axis:output:0"
      device: "/device:CPU:0"
      attr {
        key: "N"
        value {
          i: 2
        }
      }
      attr {
        key: "T"
        value {
          type: DT_INT32
        }
      }
      attr {
        key: "Tidx"
        value {
          type: DT_INT32
        }
      }
      attr {
        key: "_output_shapes"
        value {
          list {
            shape {
              dim {
                size: -1
              }
            }
          }
        }
      }
    }
    node_def {
      name: "strided_slice_1/stack"
      op: "Const"
      device: "/device:CPU:0"
      attr {
        key: "_output_shapes"
        value {
          list {
            shape {
              dim {
                size: 1
              }
            }
          }
        }
      }
      attr {
        key: "dtype"
        value {
          type: DT_INT32
        }
      }
      attr {
        key: "value"
        value {
          tensor {
            dtype: DT_INT32
            tensor_shape {
              dim {
                size: 1
              }
            }
            int_val: 0
          }
        }
      }
    }
    node_def {
      name: "strided_slice_1/stack_1"
      op: "Pack"
      input: "fill_dims_adanet_iteration_0_ensemble_t0_1_layer_dnn_grow_complexity_regularized_t0_1_layer_dnn_grow_complexity_regularized_mixture_weights_adanet_adanet_weighted_ensemble_write_summary_buckets_maximum"
      device: "/device:CPU:0"
      attr {
        key: "N"
        value {
          i: 1
        }
      }
      attr {
        key: "T"
        value {
          type: DT_INT32
        }
      }
      attr {
        key: "_output_shapes"
        value {
          list {
            shape {
              dim {
                size: 1
              }
            }
          }
        }
      }
      attr {
        key: "axis"
        value {
          i: 0
        }
      }
    }
    node_def {
      name: "strided_slice_1/stack_2"
      op: "Const"
      device: "/device:CPU:0"
      attr {
        key: "_output_shapes"
        value {
          list {
            shape {
              dim {
                size: 1
              }
            }
          }
        }
      }
      attr {
        key: "dtype"
        value {
          type: DT_INT32
        }
      }
      attr {
        key: "value"
        value {
          tensor {
            dtype: DT_INT32
            tensor_shape {
              dim {
                size: 1
              }
            }
            int_val: 1
          }
        }
      }
    }
    node_def {
      name: "strided_slice_1"
      op: "StridedSlice"
      input: "concat:output:0"
      input: "strided_slice_1/stack:output:0"
      input: "strided_slice_1/stack_1:output:0"
      input: "strided_slice_1/stack_2:output:0"
      device: "/device:CPU:0"
      attr {
        key: "Index"
        value {
          type: DT_INT32
        }
      }
      attr {
        key: "T"
        value {
          type: DT_INT32
        }
      }
      attr {
        key: "_output_shapes"
        value {
          list {
            shape {
              dim {
                size: -1
              }
            }
          }
        }
      }
      attr {
        key: "begin_mask"
        value {
          i: 1
        }
      }
      attr {
        key: "ellipsis_mask"
        value {
          i: 0
        }
      }
      attr {
        key: "end_mask"
        value {
          i: 0
        }
      }
      attr {
        key: "new_axis_mask"
        value {
          i: 0
        }
      }
      attr {
        key: "shrink_axis_mask"
        value {
          i: 0
        }
      }
    }
    node_def {
      name: "Cast"
      op: "Cast"
      input: "strided_slice_1:output:0"
      device: "/device:CPU:0"
      attr {
        key: "DstT"
        value {
          type: DT_DOUBLE
        }
      }
      attr {
        key: "SrcT"
        value {
          type: DT_INT32
        }
      }
      attr {
        key: "Truncate"
        value {
          b: false
        }
      }
      attr {
        key: "_output_shapes"
        value {
          list {
            shape {
              dim {
                size: -1
              }
            }
          }
        }
      }
    }
    node_def {
      name: "stack"
      op: "Pack"
      input: "Fill:output:0"
      input: "Fill:output:0"
      input: "Cast:y:0"
      device: "/device:CPU:0"
      attr {
        key: "N"
        value {
          i: 3
        }
      }
      attr {
        key: "T"
        value {
          type: DT_DOUBLE
        }
      }
      attr {
        key: "_output_shapes"
        value {
          list {
            shape {
              dim {
                size: 3
              }
              dim {
                size: -1
              }
            }
          }
        }
      }
      attr {
        key: "axis"
        value {
          i: 0
        }
      }
    }
    node_def {
      name: "transpose/perm"
      op: "Const"
      device: "/device:CPU:0"
      attr {
        key: "_output_shapes"
        value {
          list {
            shape {
              dim {
                size: 2
              }
            }
          }
        }
      }
      attr {
        key: "dtype"
        value {
          type: DT_INT32
        }
      }
      attr {
        key: "value"
        value {
          tensor {
            dtype: DT_INT32
            tensor_shape {
              dim {
                size: 2
              }
            }
            tensor_content: "\001\000\000\000\000\000\000\000"
          }
        }
      }
    }
    node_def {
      name: "transpose_0"
      op: "Transpose"
      input: "stack:output:0"
      input: "transpose/perm:output:0"
      device: "/device:CPU:0"
      attr {
        key: "T"
        value {
          type: DT_DOUBLE
        }
      }
      attr {
        key: "Tperm"
        value {
          type: DT_INT32
        }
      }
    }
    ret {
      key: "transpose"
      value: "transpose_0:y:0"
    }
    attr {
      key: "_input_shapes"
      value {
        list {
          shape {
          }
          shape {
          }
          shape {
          }
          shape {
          }
          shape {
            dim {
              size: 1
            }
          }
          shape {
          }
        }
      }
    }
    arg_attr {
      value {
        attr {
          key: "_output_shapes"
          value {
            list {
              shape {
              }
            }
          }
        }
      }
    }
    arg_attr {
      key: 1
      value {
        attr {
          key: "_output_shapes"
          value {
            list {
              shape {
              }
            }
          }
        }
      }
    }
    arg_attr {
      key: 2
      value {
        attr {
          key: "_output_shapes"
          value {
            list {
              shape {
              }
            }
          }
        }
      }
    }
    arg_attr {
      key: 3
      value {
        attr {
          key: "_output_shapes"
          value {
            list {
              shape {
              }
            }
          }
        }
      }
    }
    arg_attr {
      key: 4
      value {
        attr {
          key: "_output_shapes"
          value {
            list {
              shape {
                dim {
                  size: 1
                }
              }
            }
          }
        }
      }
    }
    arg_attr {
      key: 5
      value {
        attr {
          key: "_output_shapes"
          value {
            list {
              shape {
              }
            }
          }
        }
      }
    }
  }
  function {
    signature {
      name: "__inference_Dataset_from_generator_finalize_fn_82821"
      input_arg {
        name: "args_0"
        type: DT_INT64
      }
      output_arg {
        name: "identity"
        type: DT_INT64
      }
      is_stateful: true
      control_output: "PyFunc"
    }
    node_def {
      name: "PyFunc"
      op: "PyFunc"
      input: "args_0"
      attr {
        key: "Tin"
        value {
          list {
            type: DT_INT64
          }
        }
      }
      attr {
        key: "Tout"
        value {
          list {
            type: DT_INT64
          }
        }
      }
      attr {
        key: "_output_shapes"
        value {
          list {
            shape {
              unknown_rank: true
            }
          }
        }
      }
      attr {
        key: "token"
        value {
          s: "pyfunc_38"
        }
      }
    }
    node_def {
      name: "Identity"
      op: "Identity"
      input: "PyFunc:output:0"
      input: "^NoOp"
      attr {
        key: "T"
        value {
          type: DT_INT64
        }
      }
      attr {
        key: "_output_shapes"
        value {
          list {
            shape {
              unknown_rank: true
            }
          }
        }
      }
    }
    node_def {
      name: "NoOp"
      op: "NoOp"
      input: "^PyFunc"
      attr {
        key: "_acd_function_control_output"
        value {
          b: true
        }
      }
      attr {
        key: "_output_shapes"
        value {
          list {
          }
        }
      }
    }
    ret {
      key: "identity"
      value: "Identity:output:0"
    }
    attr {
      key: "_input_shapes"
      value {
        list {
          shape {
            unknown_rank: true
          }
        }
      }
    }
    attr {
      key: "_tf_data_function"
      value {
        b: true
      }
    }
    control_ret {
      key: "PyFunc"
      value: "PyFunc"
    }
    arg_attr {
      value {
        attr {
          key: "_output_shapes"
          value {
            list {
              shape {
                unknown_rank: true
              }
            }
          }
        }
        attr {
          key: "_user_specified_name"
          value {
            s: "args_0"
          }
        }
      }
    }
  }
  function {
    signature {
      name: "adanet_iteration_0_ensemble_t0_1_layer_dnn_grow_complexity_regularized_t0_1_layer_dnn_grow_complexity_regularized_mixture_weights_adanet_adanet_weighted_ensemble_write_summary_buckets_cond_false_84193"
      input_arg {
        name: "cond_adanet_iteration_0_ensemble_t0_1_layer_dnn_grow_complexity_regularized_t0_1_layer_dnn_grow_complexity_regularized_mixture_weights_adanet_adanet_weighted_ensemble_write_summary_buckets_maximum"
        type: DT_INT32
      }
      input_arg {
        name: "min_adanet_iteration_0_ensemble_t0_1_layer_dnn_grow_complexity_regularized_t0_1_layer_dnn_grow_complexity_regularized_mixture_weights_adanet_adanet_weighted_ensemble_write_summary_buckets_cast"
        type: DT_DOUBLE
      }
      input_arg {
        name: "cond_adanet_iteration_0_ensemble_t0_1_layer_dnn_grow_complexity_regularized_t0_1_layer_dnn_grow_complexity_regularized_mixture_weights_adanet_adanet_weighted_ensemble_write_summary_buckets_size"
        type: DT_INT32
      }
      output_arg {
        name: "cond_identity"
        type: DT_DOUBLE
      }
    }
    node_def {
      name: "Const"
      op: "Const"
      device: "/device:CPU:0"
      attr {
        key: "_output_shapes"
        value {
          list {
            shape {
              dim {
                size: 1
              }
            }
          }
        }
      }
      attr {
        key: "dtype"
        value {
          type: DT_INT32
        }
      }
      attr {
        key: "value"
        value {
          tensor {
            dtype: DT_INT32
            tensor_shape {
              dim {
                size: 1
              }
            }
            int_val: 0
          }
        }
      }
    }
    node_def {
      name: "Min"
      op: "Min"
      input: "min_adanet_iteration_0_ensemble_t0_1_layer_dnn_grow_complexity_regularized_t0_1_layer_dnn_grow_complexity_regularized_mixture_weights_adanet_adanet_weighted_ensemble_write_summary_buckets_cast"
      input: "Const:output:0"
      device: "/device:CPU:0"
      attr {
        key: "T"
        value {
          type: DT_DOUBLE
        }
      }
      attr {
        key: "Tidx"
        value {
          type: DT_INT32
        }
      }
      attr {
        key: "_output_shapes"
        value {
          list {
            shape {
            }
          }
        }
      }
      attr {
        key: "keep_dims"
        value {
          b: false
        }
      }
    }
    node_def {
      name: "Const_1"
      op: "Const"
      device: "/device:CPU:0"
      attr {
        key: "_output_shapes"
        value {
          list {
            shape {
              dim {
                size: 1
              }
            }
          }
        }
      }
      attr {
        key: "dtype"
        value {
          type: DT_INT32
        }
      }
      attr {
        key: "value"
        value {
          tensor {
            dtype: DT_INT32
            tensor_shape {
              dim {
                size: 1
              }
            }
            int_val: 0
          }
        }
      }
    }
    node_def {
      name: "Max"
      op: "Max"
      input: "min_adanet_iteration_0_ensemble_t0_1_layer_dnn_grow_complexity_regularized_t0_1_layer_dnn_grow_complexity_regularized_mixture_weights_adanet_adanet_weighted_ensemble_write_summary_buckets_cast"
      input: "Const_1:output:0"
      device: "/device:CPU:0"
      attr {
        key: "T"
        value {
          type: DT_DOUBLE
        }
      }
      attr {
        key: "Tidx"
        value {
          type: DT_INT32
        }
      }
      attr {
        key: "_output_shapes"
        value {
          list {
            shape {
            }
          }
        }
      }
      attr {
        key: "keep_dims"
        value {
          b: false
        }
      }
    }
    node_def {
      name: "sub"
      op: "Sub"
      input: "Max:output:0"
      input: "Min:output:0"
      device: "/device:CPU:0"
      attr {
        key: "T"
        value {
          type: DT_DOUBLE
        }
      }
      attr {
        key: "_output_shapes"
        value {
          list {
            shape {
            }
          }
        }
      }
    }
    node_def {
      name: "Equal/y"
      op: "Const"
      device: "/device:CPU:0"
      attr {
        key: "_output_shapes"
        value {
          list {
            shape {
            }
          }
        }
      }
      attr {
        key: "dtype"
        value {
          type: DT_DOUBLE
        }
      }
      attr {
        key: "value"
        value {
          tensor {
            dtype: DT_DOUBLE
            tensor_shape {
            }
            double_val: 0.0
          }
        }
      }
    }
    node_def {
      name: "Equal"
      op: "Equal"
      input: "sub:z:0"
      input: "Equal/y:output:0"
      device: "/device:CPU:0"
      attr {
        key: "T"
        value {
          type: DT_DOUBLE
        }
      }
      attr {
        key: "_output_shapes"
        value {
          list {
            shape {
            }
          }
        }
      }
      attr {
        key: "incompatible_shape_error"
        value {
          b: true
        }
      }
    }
    node_def {
      name: "cond"
      op: "StatelessIf"
      input: "Equal:z:0"
      input: "cond_adanet_iteration_0_ensemble_t0_1_layer_dnn_grow_complexity_regularized_t0_1_layer_dnn_grow_complexity_regularized_mixture_weights_adanet_adanet_weighted_ensemble_write_summary_buckets_maximum"
      input: "Max:output:0"
      input: "cond_adanet_iteration_0_ensemble_t0_1_layer_dnn_grow_complexity_regularized_t0_1_layer_dnn_grow_complexity_regularized_mixture_weights_adanet_adanet_weighted_ensemble_write_summary_buckets_size"
      input: "sub:z:0"
      input: "min_adanet_iteration_0_ensemble_t0_1_layer_dnn_grow_complexity_regularized_t0_1_layer_dnn_grow_complexity_regularized_mixture_weights_adanet_adanet_weighted_ensemble_write_summary_buckets_cast"
      input: "Min:output:0"
      device: "/device:CPU:0"
      attr {
        key: "Tcond"
        value {
          type: DT_BOOL
        }
      }
      attr {
        key: "Tin"
        value {
          list {
            type: DT_INT32
            type: DT_DOUBLE
            type: DT_INT32
            type: DT_DOUBLE
            type: DT_DOUBLE
            type: DT_DOUBLE
          }
        }
      }
      attr {
        key: "Tout"
        value {
          list {
            type: DT_DOUBLE
          }
        }
      }
      attr {
        key: "_lower_using_switch_merge"
        value {
          b: true
        }
      }
      attr {
        key: "_output_shapes"
        value {
          list {
            shape {
              dim {
                size: -1
              }
              dim {
                size: 3
              }
            }
          }
        }
      }
      attr {
        key: "_read_only_resource_inputs"
        value {
          list {
          }
        }
      }
      attr {
        key: "else_branch"
        value {
          func {
            name: "cond_false_84210"
          }
        }
      }
      attr {
        key: "output_shapes"
        value {
          list {
            shape {
              dim {
                size: -1
              }
              dim {
                size: 3
              }
            }
          }
        }
      }
      attr {
        key: "then_branch"
        value {
          func {
            name: "cond_true_84209"
          }
        }
      }
    }
    node_def {
      name: "cond/Identity"
      op: "Identity"
      input: "cond:output:0"
      device: "/device:CPU:0"
      attr {
        key: "T"
        value {
          type: DT_DOUBLE
        }
      }
      attr {
        key: "_output_shapes"
        value {
          list {
            shape {
              dim {
                size: -1
              }
              dim {
                size: 3
              }
            }
          }
        }
      }
    }
    ret {
      key: "cond_identity"
      value: "cond/Identity:output:0"
    }
    attr {
      key: "_input_shapes"
      value {
        list {
          shape {
          }
          shape {
            dim {
              size: 1
            }
          }
          shape {
          }
        }
      }
    }
    arg_attr {
      value {
        attr {
          key: "_output_shapes"
          value {
            list {
              shape {
              }
            }
          }
        }
      }
    }
    arg_attr {
      key: 1
      value {
        attr {
          key: "_output_shapes"
          value {
            list {
              shape {
                dim {
                  size: 1
                }
              }
            }
          }
        }
      }
    }
    arg_attr {
      key: 2
      value {
        attr {
          key: "_output_shapes"
          value {
            list {
              shape {
              }
            }
          }
        }
      }
    }
  }
  function {
    signature {
      name: "global_step_cond_false_82788"
      input_arg {
        name: "placeholder"
        type: DT_RESOURCE
      }
      input_arg {
        name: "global_step_initializer_zeros_0"
        type: DT_INT64
      }
      output_arg {
        name: "global_step_initializer_zeros"
        type: DT_INT64
      }
    }
    ret {
      key: "global_step_initializer_zeros"
      value: "global_step_initializer_zeros_0"
    }
    attr {
      key: "_input_shapes"
      value {
        list {
          shape {
          }
          shape {
          }
        }
      }
    }
    arg_attr {
      key: 1
      value {
        attr {
          key: "_output_shapes"
          value {
            list {
              shape {
              }
            }
          }
        }
      }
    }
  }
  function {
    signature {
      name: "global_step_cond_true_82787"
      input_arg {
        name: "read_readvariableop_global_step"
        type: DT_RESOURCE
        handle_data {
          dtype: DT_INT64
          shape {
          }
        }
      }
      input_arg {
        name: "placeholder"
        type: DT_INT64
      }
      output_arg {
        name: "identity"
        type: DT_INT64
      }
      is_stateful: true
    }
    node_def {
      name: "Read/ReadVariableOp"
      op: "ReadVariableOp"
      input: "read_readvariableop_global_step"
      attr {
        key: "_output_shapes"
        value {
          list {
            shape {
            }
          }
        }
      }
      attr {
        key: "dtype"
        value {
          type: DT_INT64
        }
      }
    }
    node_def {
      name: "Identity"
      op: "Identity"
      input: "Read/ReadVariableOp:value:0"
      attr {
        key: "T"
        value {
          type: DT_INT64
        }
      }
      attr {
        key: "_output_shapes"
        value {
          list {
            shape {
            }
          }
        }
      }
    }
    ret {
      key: "identity"
      value: "Identity:output:0"
    }
    attr {
      key: "_input_shapes"
      value {
        list {
          shape {
          }
          shape {
          }
        }
      }
    }
    arg_attr {
      key: 1
      value {
        attr {
          key: "_output_shapes"
          value {
            list {
              shape {
              }
            }
          }
        }
      }
    }
  }
}
versions {
  producer: 987
  min_consumer: 12
}
